output/histheads40mlps20/model.pt (torch, 30914 bytes, 25 tensors)

embed.W_E f4 [8, 8]
10.0 -10.0 -10.0 -10.0 -10.0 -10.0 -10.0 -10.0
-10.0 10.0 -10.0 -10.0 -10.0 -10.0 -10.0 -10.0
-10.0 -10.0 10.0 -10.0 -10.0 -10.0 -10.0 -10.0
-10.0 -10.0 -10.0 10.0 -10.0 -10.0 -10.0 -10.0
-10.0 -10.0 -10.0 -10.0 10.0 -10.0 -10.0 -10.0
-10.0 -10.0 -10.0 -10.0 -10.0 10.0 -10.0 -10.0
-10.0 -10.0 -10.0 -10.0 -10.0 -10.0 10.0 -10.0
-10.0 -10.0 -10.0 -10.0 -10.0 -10.0 -10.0 10.0
00000000: 0000 2041 0000 20c1 0000 20c1 0000 20c1
00000010: 0000 20c1 0000 20c1 0000 20c1 0000 20c1
00000020: 0000 20c1 0000 2041 0000 20c1 0000 20c1
00000030: 0000 20c1 0000 20c1 0000 20c1 0000 20c1
00000040: 0000 20c1 0000 20c1 0000 2041 0000 20c1
00000050: 0000 20c1 0000 20c1 0000 20c1 0000 20c1
00000060: 0000 20c1 0000 20c1 0000 20c1 0000 2041
00000070: 0000 20c1 0000 20c1 0000 20c1 0000 20c1
00000080: 0000 20c1 0000 20c1 0000 20c1 0000 20c1
00000090: 0000 2041 0000 20c1 0000 20c1 0000 20c1
000000a0: 0000 20c1 0000 20c1 0000 20c1 0000 20c1
000000b0: 0000 20c1 0000 2041 0000 20c1 0000 20c1
000000c0: 0000 20c1 0000 20c1 0000 20c1 0000 20c1
000000d0: 0000 20c1 0000 20c1 0000 2041 0000 20c1
000000e0: 0000 20c1 0000 20c1 0000 20c1 0000 20c1
000000f0: 0000 20c1 0000 20c1 0000 20c1 0000 2041

num_embed.W_E f4 [8, 1]
1.0 1.0 1.0 1.0 1.0 1.0 1.0 1.0
00000000: 0000 803f 0000 803f 0000 803f 0000 803f
00000010: 0000 803f 0000 803f 0000 803f 0000 803f

pos_embed.W f4 [8, 8]
1.0 0.0 0.0 0.0 0.0 0.0 0.0 0.0
0.0 1.0 0.0 0.0 0.0 0.0 0.0 0.0
0.0 0.0 1.0 0.0 0.0 0.0 0.0 0.0
0.0 0.0 0.0 1.0 0.0 0.0 0.0 0.0
0.0 0.0 0.0 0.0 1.0 0.0 0.0 0.0
0.0 0.0 0.0 0.0 0.0 1.0 0.0 0.0
0.0 0.0 0.0 0.0 0.0 0.0 1.0 0.0
0.0 0.0 0.0 0.0 0.0 0.0 0.0 1.0
00000000: 0000 803f 0000 0000 0000 0000 0000 0000
00000010: 0000 0000 0000 0000 0000 0000 0000 0000
00000020: 0000 0000 0000 803f 0000 0000 0000 0000
00000030: 0000 0000 0000 0000 0000 0000 0000 0000
00000040: 0000 0000 0000 0000 0000 803f 0000 0000
00000050: 0000 0000 0000 0000 0000 0000 0000 0000
00000060: 0000 0000 0000 0000 0000 0000 0000 803f
00000070: 0000 0000 0000 0000 0000 0000 0000 0000
00000080: 0000 0000 0000 0000 0000 0000 0000 0000
00000090: 0000 803f 0000 0000 0000 0000 0000 0000
000000a0: 0000 0000 0000 0000 0000 0000 0000 0000
000000b0: 0000 0000 0000 803f 0000 0000 0000 0000
000000c0: 0000 0000 0000 0000 0000 0000 0000 0000
000000d0: 0000 0000 0000 0000 0000 803f 0000 0000
000000e0: 0000 0000 0000 0000 0000 0000 0000 0000
000000f0: 0000 0000 0000 0000 0000 0000 0000 803f

blocks.0.cat_attn.mask f4 [8, 8]
1.0 0.0 0.0 0.0 0.0 0.0 0.0 0.0
1.0 1.0 0.0 0.0 0.0 0.0 0.0 0.0
1.0 1.0 1.0 0.0 0.0 0.0 0.0 0.0
1.0 1.0 1.0 1.0 0.0 0.0 0.0 0.0
1.0 1.0 1.0 1.0 1.0 0.0 0.0 0.0
1.0 1.0 1.0 1.0 1.0 1.0 0.0 0.0
1.0 1.0 1.0 1.0 1.0 1.0 1.0 0.0
1.0 1.0 1.0 1.0 1.0 1.0 1.0 1.0
00000000: 0000 803f 0000 0000 0000 0000 0000 0000
00000010: 0000 0000 0000 0000 0000 0000 0000 0000
00000020: 0000 803f 0000 803f 0000 0000 0000 0000
00000030: 0000 0000 0000 0000 0000 0000 0000 0000
00000040: 0000 803f 0000 803f 0000 803f 0000 0000
00000050: 0000 0000 0000 0000 0000 0000 0000 0000
00000060: 0000 803f 0000 803f 0000 803f 0000 803f
00000070: 0000 0000 0000 0000 0000 0000 0000 0000
00000080: 0000 803f 0000 803f 0000 803f 0000 803f
00000090: 0000 803f 0000 0000 0000 0000 0000 0000
000000a0: 0000 803f 0000 803f 0000 803f 0000 803f
000000b0: 0000 803f 0000 803f 0000 0000 0000 0000
000000c0: 0000 803f 0000 803f 0000 803f 0000 803f
000000d0: 0000 803f 0000 803f 0000 803f 0000 0000
000000e0: 0000 803f 0000 803f 0000 803f 0000 803f
000000f0: 0000 803f 0000 803f 0000 803f 0000 803f

blocks.0.cat_attn.W_K.W f4 [4, 2]
15.473281 -14.591117 13.474589 -14.613284 14.063267 -15.819096 14.81874 -13.940955
00000000: 8f92 7741 3775 69c1 eb97 5741 03d0 69c1
00000010: 2403 6141 041b 7dc1 8f19 6d41 270e 5fc1

blocks.0.cat_attn.W_K.E f4 [2, 8, 8]
1.0 0.0 0.0 0.0 0.0 0.0 0.0 0.0
0.0 1.0 0.0 0.0 0.0 0.0 0.0 0.0
0.0 0.0 1.0 0.0 0.0 0.0 0.0 0.0
0.0 0.0 0.0 1.0 0.0 0.0 0.0 0.0
0.0 0.0 0.0 0.0 1.0 0.0 0.0 0.0
0.0 0.0 0.0 0.0 0.0 1.0 0.0 0.0
0.0 0.0 0.0 0.0 0.0 0.0 1.0 0.0
0.0 0.0 0.0 0.0 0.0 0.0 0.0 1.0
1.0 0.0 0.0 0.0 0.0 0.0 0.0 0.0
0.0 1.0 0.0 0.0 0.0 0.0 0.0 0.0
0.0 0.0 1.0 0.0 0.0 0.0 0.0 0.0
0.0 0.0 0.0 1.0 0.0 0.0 0.0 0.0
0.0 0.0 0.0 0.0 1.0 0.0 0.0 0.0
0.0 0.0 0.0 0.0 0.0 1.0 0.0 0.0
0.0 0.0 0.0 0.0 0.0 0.0 1.0 0.0
0.0 0.0 0.0 0.0 0.0 0.0 0.0 1.0
00000000: 0000 803f 0000 0000 0000 0000 0000 0000
00000010: 0000 0000 0000 0000 0000 0000 0000 0000
00000020: 0000 0000 0000 803f 0000 0000 0000 0000
00000030: 0000 0000 0000 0000 0000 0000 0000 0000
00000040: 0000 0000 0000 0000 0000 803f 0000 0000
00000050: 0000 0000 0000 0000 0000 0000 0000 0000
00000060: 0000 0000 0000 0000 0000 0000 0000 803f
00000070: 0000 0000 0000 0000 0000 0000 0000 0000
00000080: 0000 0000 0000 0000 0000 0000 0000 0000
00000090: 0000 803f 0000 0000 0000 0000 0000 0000
000000a0: 0000 0000 0000 0000 0000 0000 0000 0000
000000b0: 0000 0000 0000 803f 0000 0000 0000 0000
000000c0: 0000 0000 0000 0000 0000 0000 0000 0000
000000d0: 0000 0000 0000 0000 0000 803f 0000 0000
000000e0: 0000 0000 0000 0000 0000 0000 0000 0000
000000f0: 0000 0000 0000 0000 0000 0000 0000 803f
00000100: 0000 803f 0000 0000 0000 0000 0000 0000
00000110: 0000 0000 0000 0000 0000 0000 0000 0000
00000120: 0000 0000 0000 803f 0000 0000 0000 0000
00000130: 0000 0000 0000 0000 0000 0000 0000 0000
00000140: 0000 0000 0000 0000 0000 803f 0000 0000
00000150: 0000 0000 0000 0000 0000 0000 0000 0000
00000160: 0000 0000 0000 0000 0000 0000 0000 803f
00000170: 0000 0000 0000 0000 0000 0000 0000 0000
00000180: 0000 0000 0000 0000 0000 0000 0000 0000
00000190: 0000 803f 0000 0000 0000 0000 0000 0000
000001a0: 0000 0000 0000 0000 0000 0000 0000 0000
000001b0: 0000 0000 0000 803f 0000 0000 0000 0000
000001c0: 0000 0000 0000 0000 0000 0000 0000 0000
000001d0: 0000 0000 0000 0000 0000 803f 0000 0000
000001e0: 0000 0000 0000 0000 0000 0000 0000 0000
000001f0: 0000 0000 0000 0000 0000 0000 0000 803f

blocks.0.cat_attn.W_Q.W f4 [4, 2]
14.32427 -15.118071 14.494201 -14.787367 14.761348 -14.588866 14.1084795 -14.7791605
00000000: 3630 6541 9ee3 71c1 3fe8 6741 0e99 6cc1
00000010: 7b2e 6c41 ff6b 69c1 55bc 6141 7177 6cc1

blocks.0.cat_attn.W_Q.E f4 [2, 8, 8]
1.0 0.0 0.0 0.0 0.0 0.0 0.0 0.0
0.0 1.0 0.0 0.0 0.0 0.0 0.0 0.0
0.0 0.0 1.0 0.0 0.0 0.0 0.0 0.0
0.0 0.0 0.0 1.0 0.0 0.0 0.0 0.0
0.0 0.0 0.0 0.0 1.0 0.0 0.0 0.0
0.0 0.0 0.0 0.0 0.0 1.0 0.0 0.0
0.0 0.0 0.0 0.0 0.0 0.0 1.0 0.0
0.0 0.0 0.0 0.0 0.0 0.0 0.0 1.0
1.0 0.0 0.0 0.0 0.0 0.0 0.0 0.0
0.0 1.0 0.0 0.0 0.0 0.0 0.0 0.0
0.0 0.0 1.0 0.0 0.0 0.0 0.0 0.0
0.0 0.0 0.0 1.0 0.0 0.0 0.0 0.0
0.0 0.0 0.0 0.0 1.0 0.0 0.0 0.0
0.0 0.0 0.0 0.0 0.0 1.0 0.0 0.0
0.0 0.0 0.0 0.0 0.0 0.0 1.0 0.0
0.0 0.0 0.0 0.0 0.0 0.0 0.0 1.0
00000000: 0000 803f 0000 0000 0000 0000 0000 0000
00000010: 0000 0000 0000 0000 0000 0000 0000 0000
00000020: 0000 0000 0000 803f 0000 0000 0000 0000
00000030: 0000 0000 0000 0000 0000 0000 0000 0000
00000040: 0000 0000 0000 0000 0000 803f 0000 0000
00000050: 0000 0000 0000 0000 0000 0000 0000 0000
00000060: 0000 0000 0000 0000 0000 0000 0000 803f
00000070: 0000 0000 0000 0000 0000 0000 0000 0000
00000080: 0000 0000 0000 0000 0000 0000 0000 0000
00000090: 0000 803f 0000 0000 0000 0000 0000 0000
000000a0: 0000 0000 0000 0000 0000 0000 0000 0000
000000b0: 0000 0000 0000 803f 0000 0000 0000 0000
000000c0: 0000 0000 0000 0000 0000 0000 0000 0000
000000d0: 0000 0000 0000 0000 0000 803f 0000 0000
000000e0: 0000 0000 0000 0000 0000 0000 0000 0000
000000f0: 0000 0000 0000 0000 0000 0000 0000 803f
00000100: 0000 803f 0000 0000 0000 0000 0000 0000
00000110: 0000 0000 0000 0000 0000 0000 0000 0000
00000120: 0000 0000 0000 803f 0000 0000 0000 0000
00000130: 0000 0000 0000 0000 0000 0000 0000 0000
00000140: 0000 0000 0000 0000 0000 803f 0000 0000
00000150: 0000 0000 0000 0000 0000 0000 0000 0000
00000160: 0000 0000 0000 0000 0000 0000 0000 803f
00000170: 0000 0000 0000 0000 0000 0000 0000 0000
00000180: 0000 0000 0000 0000 0000 0000 0000 0000
00000190: 0000 803f 0000 0000 0000 0000 0000 0000
000001a0: 0000 0000 0000 0000 0000 0000 0000 0000
000001b0: 0000 0000 0000 803f 0000 0000 0000 0000
000001c0: 0000 0000 0000 0000 0000 0000 0000 0000
000001d0: 0000 0000 0000 0000 0000 803f 0000 0000
000001e0: 0000 0000 0000 0000 0000 0000 0000 0000
000001f0: 0000 0000 0000 0000 0000 0000 0000 803f

blocks.0.cat_attn.W_pred.W f4 [4, 8, 8]
4.507262 -6.9851556 -7.5944185 -9.374309 -7.512413 -7.719976 -8.721075 11.637294
-3.2923672 8.44304 -15.423683 -15.899489 -15.37816 -14.74497 -15.958126 9.447912
-2.5077865 -14.979939 10.180952 -15.82601 -15.580642 -15.236798 -15.622779 8.38665
-3.2184503 -14.952846 -15.215383 10.824236 -16.198051 -15.409066 -15.492919 8.069521
-3.1883152 -14.596522 -15.179957 -15.617291 9.870994 -14.994781 -15.7693 8.84262
-4.2695513 -15.573825 -15.892303 -16.118698 -15.955037 6.7900734 -15.975089 10.797008
-4.7291 -16.814133 -17.352459 -18.503752 -17.426281 -17.19681 6.681127 8.24331
5.687528 -4.0029516 -6.4620705 -6.2205467 -6.3039646 -5.130644 -6.5549417 10.5641575
3.010394 -6.6331897 -7.7725124 -5.8088055 -8.223595 -6.994551 -6.627898 11.233222
-0.047476407 8.55238 -13.914406 -13.846657 -13.148503 -13.541159 -13.280475 12.383013
-1.0017244 -15.64455 7.498089 -14.561897 -14.778761 -14.506376 -15.454824 10.859156
0.35981297 -14.762073 -14.984621 10.04102 -14.1255245 -14.785219 -14.46243 8.901482
-1.4305867 -15.234149 -14.77559 -14.298029 11.134086 -14.984542 -14.5964365 6.9522123
-1.7229357 -14.891957 -15.20769 -14.523703 -14.452927 7.1838207 -14.893093 11.578572
-1.9137143 -15.224886 -16.031744 -15.38453 -16.192844 -16.493454 10.421686 6.1081743
2.1713989 -4.481517 -4.548932 -3.6525838 -3.97644 -4.8093095 -5.0549717 11.101764
5.8699613 -8.689435 -6.575439 -5.4944577 -7.4572887 -9.780432 -9.31703 11.383791
-1.408765 8.044776 -14.7192 -14.806346 -15.2824955 -15.358557 -16.003757 10.670397
-2.3294032 -15.404864 7.3093495 -14.723132 -14.906258 -15.915129 -14.97765 10.892899
-2.348125 -15.898685 -15.508763 6.562189 -15.440239 -16.284466 -16.150412 10.407648
-1.8508071 -14.825293 -15.218839 -14.150892 10.923262 -15.854319 -15.543561 8.674654
-3.071817 -17.245358 -16.341215 -16.000372 -17.194113 6.0315695 -17.419298 9.823857
-2.0175004 -16.089893 -15.827335 -15.460886 -15.986902 -16.266027 8.9767275 8.680808
6.241314 -4.7236586 -5.6583796 -4.3754315 -5.4668193 -5.338545 -5.777782 10.711218
4.918798 -7.3887744 -6.6501017 -8.098262 -8.1187935 -9.363066 -9.454074 12.237361
-1.6449519 9.499638 -16.079842 -16.731365 -16.572245 -16.444386 -16.502298 7.029757
-2.6221342 -16.605293 10.245646 -17.163034 -16.323275 -16.370136 -16.653788 6.6773367
-2.0039375 -16.845541 -15.5315075 8.108418 -16.833004 -16.409235 -16.35625 9.010683
-1.717688 -16.853525 -15.871333 -16.86854 10.118499 -16.516792 -16.457676 7.3239055
-2.3904421 -16.560125 -15.813979 -16.33144 -16.045103 10.326021 -16.015022 7.7596493
-2.9577997 -17.45755 -16.802546 -17.430893 -16.85433 -17.36971 5.3614416 10.632035
6.4715257 -5.920301 -5.36257 -5.679077 -6.2500467 -6.984997 -6.9615145 10.33919
00000000: 7e3b 9040 6586 dfc0 7a05 f3c0 2bfd 15c1
00000010: b065 f0c0 0b0a f7c0 8689 0bc1 5b32 3a41
00000020: 25b6 52c0 b116 0741 68c7 76c1 4f64 7ec1
00000030: f20c 76c1 66eb 6bc1 7c54 7fc1 a62a 1741
00000040: 937f 20c0 d5ad 6fc1 2ee5 2241 5637 7dc1
00000050: 4f4a 79c1 edc9 73c1 e7f6 79c1 b82f 0641
00000060: 17fb 4dc0 db3e 6fc1 3572 73c1 1230 2d41
00000070: 9c95 81c1 898b 76c1 ffe2 77c1 c21c 0141
00000080: 5b0d 4cc0 5b8b 69c1 1be1 72c1 6de0 79c1
00000090: 97ef 1d41 9fea 6fc1 0e4f 7cc1 5f7b 0d41
000000a0: 2aa0 88c0 632e 79c1 e046 7ec1 18f3 80c1
000000b0: d547 7fc1 4848 d940 f799 7fc1 8bc0 2c41
000000c0: ca54 97c0 5883 86c1 d6d1 8ac1 af07 94c1
000000d0: 0669 8bc1 1193 89c1 cbcb d540 99e4 0341
000000e0: 3b00 b640 2e18 80c0 48c9 cec0 b80e c7c0
000000f0: 14ba c9c0 3c2e a4c0 15c2 d1c0 ca06 2941
00000100: 4caa 4040 1743 d4c0 6cb8 f8c0 bce1 b9c0
00000110: d893 03c1 5dd3 dfc0 be17 d4c0 47bb 3341
00000120: 9f76 42bd 8cd6 0841 68a1 5ec1 e88b 5dc1
00000130: 4560 52c1 96a8 58c1 d37c 54c1 d220 4641
00000140: 8138 80bf 1450 7ac1 58f0 ef40 88fd 68c1
00000150: ce75 6cc1 1e1a 68c1 f646 77c1 1abf 2d41
00000160: 6839 b83e 7331 6cc1 02c1 6fc1 05a8 2041
00000170: 2602 62c1 4290 6cc1 1d66 67c1 786c 0e41
00000180: 771d b7bf 13bf 73c1 d168 6cc1 bac4 64c1
00000190: 3725 3241 afc0 6fc1 018b 69c1 8678 de40
000001a0: 2889 dcbf 7545 6ec1 b352 73c1 1661 68c1
000001b0: 303f 67c1 dce1 e540 1c4a 6ec1 d541 3941
000001c0: 97f4 f4bf 2299 73c1 0341 80c1 0927 76c1
000001d0: f28a 81c1 98f2 83c1 3abf 2641 2a76 c340
000001e0: 33f8 0a40 9668 8fc0 da90 91c0 efc3 69c0
000001f0: fe7d 7ec0 dde5 99c0 54c2 a1c0 d3a0 3141
00000200: b9d6 bb40 ed07 0bc1 ff69 d2c0 99d2 afc0
00000210: 1ca2 eec0 a67c 1cc1 8e12 15c1 0224 3641
00000220: 6952 b4bf 67b7 0041 d881 6bc1 cbe6 6cc1
00000230: 1a85 74c1 a6bc 75c1 b207 80c1 f2b9 2a41
00000240: f114 15c0 537a 76c1 31e6 e940 f391 6bc1
00000250: 0880 6ec1 5ea4 7ec1 74a4 6fc1 5049 2e41
00000260: ae47 16c0 0461 7ec1 e523 78c1 74fd d140
00000270: 380b 77c1 9646 82c1 0b34 81c1 ba85 2641
00000280: 3fe7 ecbf 6634 6dc1 5d80 73c1 0e6a 62c1
00000290: aec5 2e41 4aab 7dc1 6db2 78c1 62cb 0a41
000002a0: a698 44c0 7ef6 89c1 cfba 82c1 c300 80c1
000002b0: 8b8d 89c1 9e02 c140 b95a 8bc1 852e 1d41
000002c0: ba1e 01c0 1ab8 80c1 c43c 7dc1 ca5f 77c1
000002d0: 5aca 7fc1 d320 82c1 ada0 0f41 97e4 0a41
000002e0: d8b8 c740 3628 97c0 7211 b5c0 8903 8cc0
000002f0: 2ff0 aec0 5cd5 aac0 97e3 b8c0 2661 2b41
00000300: cb66 9d40 d770 ecc0 a2cd d4c0 7b92 01c1
00000310: 94e6 01c1 1ecf 15c1 e343 17c1 3bcc 4341
00000320: c98d d2bf 84fe 1741 84a3 80c1 d6d9 85c1
00000330: f593 84c1 1a8e 83c1 b504 84c1 c5f3 e040
00000340: 0cd1 27c0 a4d7 84c1 2bee 2341 e54d 89c1
00000350: 1196 82c1 0af6 82c1 f53a 85c1 beac d540
00000360: 8340 00c0 abc3 86c1 0e81 78c1 15bc 0141
00000370: fea9 86c1 1d46 83c1 9ad9 82c1 c22b 1041
00000380: 33dd dbbf 05d4 86c1 fbf0 7dc1 c5f2 86c1
00000390: 5fe5 2141 6422 84c1 52a9 83c1 6f5d ea40
000003a0: 01fd 18c0 237b 84c1 0f06 7dc1 caa6 82c1
000003b0: 5f5c 80c1 6237 2541 c41e 80c1 0c4f f840
000003c0: 974c 3dc0 10a9 8bc1 9d6b 86c1 7872 8bc1
000003d0: abd5 86c1 2bf5 8ac1 ee90 ab40 d11c 2a41
000003e0: bd16 cf40 1b73 bdc0 2c9a abc0 00bb b5c0
000003f0: 6200 c8c0 1885 dfc0 bac4 dec0 526d 2541

blocks.0.cat_attn.W_V.W f4 [4, 2]
-4.643884 5.8921924 -5.3119254 5.605881 -4.805317 3.9039807 -4.1930823 6.3198686
00000000: b39a 94c0 d78c bc40 4bfb a9c0 6163 b340
00000010: 28c5 99c0 d2da 7940 bb2d 86c0 5d3c ca40

blocks.0.cat_attn.W_V.E f4 [2, 8, 8]
1.0 0.0 0.0 0.0 0.0 0.0 0.0 0.0
0.0 1.0 0.0 0.0 0.0 0.0 0.0 0.0
0.0 0.0 1.0 0.0 0.0 0.0 0.0 0.0
0.0 0.0 0.0 1.0 0.0 0.0 0.0 0.0
0.0 0.0 0.0 0.0 1.0 0.0 0.0 0.0
0.0 0.0 0.0 0.0 0.0 1.0 0.0 0.0
0.0 0.0 0.0 0.0 0.0 0.0 1.0 0.0
0.0 0.0 0.0 0.0 0.0 0.0 0.0 1.0
1.0 0.0 0.0 0.0 0.0 0.0 0.0 0.0
0.0 1.0 0.0 0.0 0.0 0.0 0.0 0.0
0.0 0.0 1.0 0.0 0.0 0.0 0.0 0.0
0.0 0.0 0.0 1.0 0.0 0.0 0.0 0.0
0.0 0.0 0.0 0.0 1.0 0.0 0.0 0.0
0.0 0.0 0.0 0.0 0.0 1.0 0.0 0.0
0.0 0.0 0.0 0.0 0.0 0.0 1.0 0.0
0.0 0.0 0.0 0.0 0.0 0.0 0.0 1.0
00000000: 0000 803f 0000 0000 0000 0000 0000 0000
00000010: 0000 0000 0000 0000 0000 0000 0000 0000
00000020: 0000 0000 0000 803f 0000 0000 0000 0000
00000030: 0000 0000 0000 0000 0000 0000 0000 0000
00000040: 0000 0000 0000 0000 0000 803f 0000 0000
00000050: 0000 0000 0000 0000 0000 0000 0000 0000
00000060: 0000 0000 0000 0000 0000 0000 0000 803f
00000070: 0000 0000 0000 0000 0000 0000 0000 0000
00000080: 0000 0000 0000 0000 0000 0000 0000 0000
00000090: 0000 803f 0000 0000 0000 0000 0000 0000
000000a0: 0000 0000 0000 0000 0000 0000 0000 0000
000000b0: 0000 0000 0000 803f 0000 0000 0000 0000
000000c0: 0000 0000 0000 0000 0000 0000 0000 0000
000000d0: 0000 0000 0000 0000 0000 803f 0000 0000
000000e0: 0000 0000 0000 0000 0000 0000 0000 0000
000000f0: 0000 0000 0000 0000 0000 0000 0000 803f
00000100: 0000 803f 0000 0000 0000 0000 0000 0000
00000110: 0000 0000 0000 0000 0000 0000 0000 0000
00000120: 0000 0000 0000 803f 0000 0000 0000 0000
00000130: 0000 0000 0000 0000 0000 0000 0000 0000
00000140: 0000 0000 0000 0000 0000 803f 0000 0000
00000150: 0000 0000 0000 0000 0000 0000 0000 0000
00000160: 0000 0000 0000 0000 0000 0000 0000 803f
00000170: 0000 0000 0000 0000 0000 0000 0000 0000
00000180: 0000 0000 0000 0000 0000 0000 0000 0000
00000190: 0000 803f 0000 0000 0000 0000 0000 0000
000001a0: 0000 0000 0000 0000 0000 0000 0000 0000
000001b0: 0000 0000 0000 803f 0000 0000 0000 0000
000001c0: 0000 0000 0000 0000 0000 0000 0000 0000
000001d0: 0000 0000 0000 0000 0000 803f 0000 0000
000001e0: 0000 0000 0000 0000 0000 0000 0000 0000
000001f0: 0000 0000 0000 0000 0000 0000 0000 803f

blocks.0.cat_attn.rel_pos_bias.bias f4 [4, 16]
-2.0 0.0 -0.16666667 -0.33333334 -0.5 -0.6666666 -0.8333333 -1.0
-1.0 -0.85714287 -0.71428573 -0.57142854 -0.42857146 -0.2857143 -0.14285715 0.0
-2.0 0.0 -0.16666667 -0.33333334 -0.5 -0.6666666 -0.8333333 -1.0
-1.0 -0.85714287 -0.71428573 -0.57142854 -0.42857146 -0.2857143 -0.14285715 0.0
-2.0 0.0 -0.16666667 -0.33333334 -0.5 -0.6666666 -0.8333333 -1.0
-1.0 -0.85714287 -0.71428573 -0.57142854 -0.42857146 -0.2857143 -0.14285715 0.0
-2.0 0.0 -0.16666667 -0.33333334 -0.5 -0.6666666 -0.8333333 -1.0
-1.0 -0.85714287 -0.71428573 -0.57142854 -0.42857146 -0.2857143 -0.14285715 0.0
00000000: 0000 00c0 0000 0000 abaa 2abe abaa aabe
00000010: 0000 00bf aaaa 2abf 5555 55bf 0000 80bf
00000020: 0000 80bf b76d 5bbf 6edb 36bf 2449 12bf
00000030: b86d dbbe 2549 92be 2549 12be 0000 0000
00000040: 0000 00c0 0000 0000 abaa 2abe abaa aabe
00000050: 0000 00bf aaaa 2abf 5555 55bf 0000 80bf
00000060: 0000 80bf b76d 5bbf 6edb 36bf 2449 12bf
00000070: b86d dbbe 2549 92be 2549 12be 0000 0000
00000080: 0000 00c0 0000 0000 abaa 2abe abaa aabe
00000090: 0000 00bf aaaa 2abf 5555 55bf 0000 80bf
000000a0: 0000 80bf b76d 5bbf 6edb 36bf 2449 12bf
000000b0: b86d dbbe 2549 92be 2549 12be 0000 0000
000000c0: 0000 00c0 0000 0000 abaa 2abe abaa aabe
000000d0: 0000 00bf aaaa 2abf 5555 55bf 0000 80bf
000000e0: 0000 80bf b76d 5bbf 6edb 36bf 2449 12bf
000000f0: b86d dbbe 2549 92be 2549 12be 0000 0000

blocks.0.cat_mlp.mlps.0.W_in f4 [64, 16]
-0.15419212 -0.20397262 -0.25143453 -0.26406956 -0.6449602 -0.4043128 -0.23901795 -0.26390824
-0.44163552 -0.30038524 -0.3206056 -0.3312327 0.0021937874 -0.094567746 -0.33885205 -0.48959422
-0.36939436 -0.40342808 -0.4739845 -0.349744 -0.33848053 -0.30670148 -0.23550348 -0.49905372
-0.25394 -0.5861088 -0.40812656 -0.5088446 -0.22922747 -0.47877905 -0.21027684 -0.47051564
-0.33081853 -0.3694944 -0.33941334 -0.20028876 -0.2187739 -0.40251467 -0.11505631 -0.3688385
-0.31333768 -0.34656748 -0.30942583 -0.5587428 -0.2287951 -0.06277463 -0.3550347 -0.3518317
0.78204906 0.7615537 0.30281675 0.6340406 0.3252982 0.47685763 0.31197795 0.35420027
0.66167176 0.524604 0.035864685 0.27780822 0.764857 0.333849 0.45244846 0.82441634
-0.16313766 -0.15979828 0.3475515 0.3852514 0.15624416 0.056237243 -0.19350547 0.11238044
-0.26197195 -0.12430616 0.41577703 0.0906427 -0.02316119 0.066296086 -0.28546008 -0.35939065
-0.37200224 -0.4792899 -0.38348073 -0.17304142 -0.5803582 -0.24557517 -0.36960137 -0.30741447
-0.21769285 -0.17611016 -0.32599455 -0.33081824 -0.34771955 -0.15886611 -0.31141126 -0.41235593
-0.11333988 -0.33533326 -0.23725694 -0.32812697 -0.37897593 -0.1543379 -0.30160734 -0.11561315
-0.39256302 -0.3063183 -0.18968575 -0.24047215 -0.36460847 -0.1658108 -0.37071526 -0.2436081
0.75802237 0.32035786 0.48429328 0.3928995 0.45554304 0.28130472 0.34828687 0.4853878
0.77186817 0.30696788 0.32325855 0.09738251 0.4344741 -0.021877075 0.4287468 0.18820432
0.41664758 0.32612342 0.31705868 0.4729687 0.4173372 0.28552198 0.16397108 0.38889596
0.37723094 0.094914384 0.3229791 0.5197684 0.41516554 0.44634032 0.044870403 0.2936378
0.37972912 0.29275465 0.5957869 0.4148516 0.3794309 0.47784182 0.19617486 0.34792015
0.43994537 0.4331371 0.5140057 0.39043757 0.445581 0.19194067 0.106677435 0.067666635
-0.19218482 -0.2995815 -0.18732387 -0.16100813 -0.13898735 -0.3323778 -0.29986995 -0.2862585
-0.25211057 -0.20700362 -0.3470826 -0.3560412 -0.2891503 -0.4113784 -0.58187747 -0.4569749
0.32959458 0.31200868 0.26741585 0.33282688 0.4301541 0.18631905 0.30808386 0.15457985
0.74261165 0.43616256 0.25255734 0.23263259 0.5603656 0.30822465 0.1784789 0.43095973
0.83476084 0.5454227 0.53095657 0.64063686 0.56737196 0.60772765 0.85385007 0.5099762
0.9807253 0.67829996 0.3496481 0.56260514 0.58174825 0.569393 0.84764516 0.6904329
0.310112 0.44937703 0.5278808 0.2836638 0.4325186 0.5862702 0.44902062 0.4947029
0.37764165 0.3462363 0.55523556 0.4123311 0.55528766 0.4037584 0.36388195 0.38162416
1.1924889 0.38094994 0.29591528 0.4305867 0.49657992 0.49805638 0.16296797 0.27405164
0.8319571 0.44178015 0.5308598 0.25913316 0.5602736 0.3548932 0.515904 0.4602187
-0.43002126 -0.09605301 -0.37935093 -0.07965228 -0.3724924 -0.23503698 -0.16661942 -0.49516904
-0.07058168 -0.25201985 -0.5725976 -0.31792635 -0.2099077 -0.26104733 -0.26002485 -0.49582916
00000000: 8ae4 1dbe 33de 50be 07bc 80be 2034 87be
00000010: 1d1c 25bf 1602 cfbe 1fc1 74be fb1e 87be
00000020: 0d1e e2be 18cc 99be 6b26 a4be 5597 a9be
00000030: a5c5 0f3b bcac c1bd 047e adbe 18ac fabe
00000040: 4221 bdbe 208e cebe 19ae f2be a511 b3be
00000050: 524d adbe fa07 9dbe d327 71be f883 ffbe
00000060: 6c04 82be 3a0b 16bf f7f5 d0be a443 02bf
00000070: 9bba 6abe 8722 f5be d052 57be 6de7 f0be
00000080: 0c61 a9be 5f2e bdbe 96c7 adbe 7f18 4dbe
00000090: 4406 60be 6716 cebe a5a2 ebbd 66d8 bcbe
000000a0: cc6d a0be 4b71 b1be 106d 9ebe c509 0fbf
000000b0: 4349 6abe fc8f 80bd 1cc7 b5be 4923 b4be
000000c0: 5e34 483f 2ff5 423f cc0a 9b3e 7c50 223f
000000d0: 7c8d a63e af26 f43e 93bb 9f3e bd59 b53e
000000e0: 5263 293f 734c 063f d9e6 123d e13c 8e3e
000000f0: abcd 433f 42ee aa3e 53a7 e73e f30c 533f
00000100: 8f0d 27be 29a2 23be 45f2 b13e ac3f c53e
00000110: 78fe 1f3e 0659 663d 4c26 46be b727 e63d
00000120: 3021 86be 3a94 febd bae0 d43e e1a2 b93d
00000130: 89bc bdbc 3ec6 873d d327 92be 0d02 b8be
00000140: 1477 bebe 7c65 f5be 9657 c4be c531 31be
00000150: 5b92 14bf 0f78 7bbe 643c bdbe 6e65 9dbe
00000160: e0ea 5ebe 3956 34be c2e8 a6be 0261 a9be
00000170: 4c08 b2be ccad 22be 4c71 9fbe 5120 d3be
00000180: bd1e e8bd cdb0 abbe 7cf3 72be 4200 a8be
00000190: 2209 c2be c10a 1ebe 476c 9abe 96c6 ecbd
000001a0: 05fe c8be c1d5 9cbe fb3c 42be 553e 76be
000001b0: f6ad babe 4eca 29be 64ce bdbe 6774 79be
000001c0: c10d 423f f205 a43e 4af5 f73e 202a c93e
000001d0: f03c e93e 2c07 903e a852 b23e c084 f83e
000001e0: 2799 453f e52a 9d3e 2582 a53e 7b70 c73d
000001f0: 6473 de3e 8d37 b3bc b384 db3e a2b8 403e
00000200: d552 d53e a6f9 a63e 8455 a23e f428 f23e
00000210: 39ad d53e f02f 923e 09e8 273e 5f1d c73e
00000220: 6a24 c13e 7962 c23d 845d a53e 8b0f 053f
00000230: 9490 d43e b886 e43e 07ca 373d b257 963e
00000240: db6b c23e f0e3 953e 7e85 183f 6e67 d43e
00000250: c444 c23e afa7 f43e 10e2 483e 9722 b23e
00000260: 8540 e13e 25c4 dd3e e195 033f 6fe7 c73e
00000270: 3123 e43e 188c 443e b379 da3d ce94 8a3d
00000280: 19cc 44be bf62 99be d4d1 3fbe 51df 24be
00000290: b352 0ebe 6c2d aabe 8e88 99be 7990 92be
000002a0: a314 81be c2f8 53be d0b4 b1be 084b b6be
000002b0: 820b 94be 31a0 d2be ecf5 14bf 9df8 e9be
000002c0: 9fc0 a83e 9abf 9f3e bbea 883e 4968 aa3e
000002d0: 283d dc3e 6cca 3e3e 2bbd 9d3e 2e4a 1e3e
000002e0: cc1b 3e3f b350 df3e 324f 813e 3d37 6e3e
000002f0: 1f74 0f3f 9fcf 9d3e 2cc3 363e c1a6 dc3e
00000300: e3b2 553f d2a0 0b3f c5ec 073f c700 243f
00000310: 4a3f 113f 0a94 1b3f eb95 5a3f cd8d 023f
00000320: d010 7b3f 11a5 2d3f 1305 b33e e406 103f
00000330: 74ed 143f bdc3 113f 46ff 583f 36c0 303f
00000340: 00c7 9e3e bf14 e63e 3223 073f 623c 913e
00000350: 1473 dd3e ce15 163f 08e6 e53e b349 fd3e
00000360: 3f5a c13e e245 b13e eb23 0e3f 101d d33e
00000370: 5527 0e3f 6cb9 ce3e bc4e ba3e 3e64 c33e
00000380: 7aa3 983f df0b c33e 3582 973e dc75 dc3e
00000390: b93f fe3e 3f01 ff3e 13e1 263e 7f50 8c3e
000003a0: 24fb 543f 0231 e23e 6ee6 073f 1aad 843e
000003b0: 176e 0f3f 90b4 b53e 4912 043f c9a1 eb3e
000003c0: bf2b dcbe 71b7 c4bd 493a c2be bc20 a3bd
000003d0: 53b7 bebe 89ad 70be 489e 2abe cc86 fdbe
000003e0: 218d 90bd bf08 81be c295 12bf 3ec7 a2be
000003f0: 0bf2 56be ffa7 85be fa21 85be 52dd fdbe

blocks.0.cat_mlp.mlps.0.b_in f4 [64]
-0.30027434 -0.30022746 -0.37087536 0.538464 0.036985535 -0.3002671 -0.29884443 0.37180322
0.3538637 0.34801912 -0.31707 0.3873652 0.58907497 0.42408413 0.41468793 -0.29983672
-0.30295688 0.6704835 0.66092247 -0.3002714 0.21833666 -0.25438464 -0.3002724 0.3401744
0.32161742 -0.3032512 0.34218955 0.4436619 -0.30026853 0.44112176 -0.02435963 0.5823669
0.35414997 -0.3002001 0.527609 0.30923343 0.45044464 -0.305815 -0.31707102 0.7320473
0.43901622 0.39165407 -0.29972208 0.5087169 -0.3002741 -0.30238363 -0.30026904 0.43591666
-0.18510272 0.57855636 0.05187464 -0.30027422 -0.3015912 -0.30115813 -0.3688537 -0.30027315
-0.30344242 0.49575254 -0.30027357 -0.3002428 -0.298136 -0.2979279 -0.30027318 0.4665311
00000000: 8fbd 99be 6ab7 99be 60e3 bdbe c7d8 093f
00000010: 257e 173d 9cbc 99be 2302 99be fe5c be3e
00000020: 9f2d b53e 902f b23e 0057 a2be bb54 c63e
00000030: 9ecd 163f 8e21 d93e fa51 d43e 3384 99be
00000040: 2a1d 9bbe cfa4 2b3f 3732 293f 2cbd 99be
00000050: a593 5f3e b43e 82be 4ebd 99be 572b ae3e
00000060: 0aab a43e be43 9bbe 7833 af3e a727 e33e
00000070: ccbc 99be b6da e13e d98d c7bc ff15 153f
00000080: 2553 b53e d4b3 99be 6211 073f d853 9e3e
00000090: aea0 e63e c993 9cbe 2257 a2be 7467 3b3f
000000a0: bcc6 e03e e286 c83e 2c75 99be 453b 023f
000000b0: 87bd 99be 07d2 9abe ddbc 99be 7830 df3e
000000c0: 918b 3dbe 451c 143f 817a 543d 8bbd 99be
000000d0: 296a 9abe 6631 9abe 64da bcbe 67bd 99be
000000e0: ce5c 9bbe 47d3 fd3e 75bd 99be 6db9 99be
000000f0: 48a5 98be 018a 98be 68bd 99be 2add ee3e

blocks.0.cat_mlp.mlps.0.W_out f4 [8, 64]
-0.16410892 0.6105221 -0.1906109 -0.42178512 -0.67286295 -0.27266747 -0.35230258 -0.68605244
-1.2184564 -0.6165482 0.054719765 -1.3343098 -0.7127638 -0.8029312 -1.0145469 0.14488408
-0.47190458 -0.7909778 -0.7110436 -0.77009726 -0.39254126 0.15558186 -0.7132045 -0.64817023
-0.5381305 -0.9555179 -0.42351818 -0.9725766 -0.30184525 -0.18478054 -0.23118027 -0.086734466
-0.21885873 0.45243683 -0.1740596 -0.3415562 -0.55504745 -0.49122787 -0.30028996 -1.3602765
-1.284002 -0.8306845 -0.54946816 -0.19438155 -0.4819005 0.367484 -0.6959632 -0.22523564
-0.5852166 -0.4572534 -0.61276394 -0.7069268 -0.014928279 0.10843595 0.28213936 -0.5901572
-0.70644933 -0.20297869 -0.37039757 0.054749552 -0.70623845 -0.471445 -0.57171714 -0.514979
0.32877713 0.28437752 -0.18800609 -0.5148516 -0.45432878 -0.13698395 -0.06443716 -0.6575458
-0.3794804 -0.44744477 -0.5024114 -0.7493651 -0.04357498 -0.38952285 -0.28494555 -0.3164674
-0.3503072 -0.70266736 -0.5895093 -0.060949292 -0.76313674 -0.050683804 -0.33599225 -1.4887764
0.24061954 -0.14159226 -0.19650723 -0.341945 -0.094798505 -0.49077 -0.18205994 -0.23609607
-0.7025069 0.2680477 -0.740366 -0.5537612 -0.47897178 -0.59864086 -0.66814566 -0.36441574
-0.16128328 -0.32718432 0.33160374 -1.1516409 0.3711163 -0.18642011 0.1711534 -0.41745874
0.076430164 -0.31079927 -0.35085604 0.238403 0.58484656 -0.3185853 0.062570825 -0.5354928
-0.30175453 -0.38990515 0.32499114 -0.027527498 -0.015302651 0.017909247 -0.5072661 -0.8717356
0.4897461 -0.97900426 -0.123389825 -0.4734183 -0.33313966 0.40507743 -0.20411271 -0.33545402
-1.0397557 -0.6527801 -0.66800356 -0.57393765 -1.5263535 -0.16232444 0.09618579 -0.5415369
-0.39058033 -0.56575227 -0.79526615 -0.23849052 -1.0687298 0.115171954 -0.69816 -0.6889486
-0.11705209 -0.23081549 0.39119348 -0.8629121 0.12965626 -0.56866026 -0.6473014 -0.27137816
-0.28462353 -0.26118764 -0.6830892 -0.42856896 -0.26237556 0.08503827 0.08278603 -0.67239916
-0.6577018 -0.48005453 -0.06893839 -0.33348256 -0.6326362 -0.46767431 -0.19621536 -0.27687514
-0.5295439 -0.6295913 -0.56218034 -0.67048794 0.49268213 -0.06305041 -0.45912638 -0.06946546
0.033432502 -0.6490413 -1.0953628 -0.258396 -0.42072245 0.04391065 -0.65883934 -0.54384553
0.6646838 -0.6232068 -0.10618488 -0.29644093 0.19033688 0.7713002 0.5042578 0.37187454
-0.08316989 -0.6103492 0.421617 -0.22655733 0.19375199 0.21861333 0.20504922 0.53843683
0.39369148 -0.20145626 0.18066917 0.31101814 0.45005384 -0.034858793 0.20448889 -0.11250303
0.4858967 -0.16314451 0.022445744 0.025819477 -0.1294614 0.17359489 0.6531678 -0.12811925
-0.2805193 0.018952329 0.31753457 -0.19493309 0.063497126 -0.1037416 0.28410715 -0.33118308
-0.53988105 -0.049706653 0.5312026 -0.5852609 -0.05008535 0.5464709 0.12330077 -0.54887486
0.54867554 0.24380544 0.1094479 -0.05940236 0.1379257 -0.07290474 -0.13889264 -0.018696023
0.59656984 -0.41891387 -0.92812204 0.51177853 0.2725933 0.42771134 -0.09144094 -0.05922222
00000000: 2b0c 28be 2d4b 1c3f 812f 43be 38f4 d7be
00000010: bf40 2cbf 129b 8bbe 0161 b4be 22a1 2fbf
00000020: 61f6 9bbf 1ad6 1dbf d521 603d aaca aabf
00000030: b077 36bf e68c 4dbf acdc 81bf 7e5c 143e
00000040: 7a9d f1be 857d 4abf f406 36bf 1825 45bf
00000050: 2bfb c8be da50 1f3e 9294 36bf 7cee 25bf
00000060: ecc2 09bf d29c 74bf 60d7 d8be c8fa 78bf
00000070: 768b 9abe 1c37 3dbe 85ba 6cbe d7a1 b1bd
00000080: 811c 60be cda5 e73e ae3c 32be 74e0 aebe
00000090: 9717 0ebf 3882 fbbe 9bbf 99be 8a1d aebf
000000a0: 2d5a a4bf bda7 54bf f2a9 0cbf f50b 47be
000000b0: aabb f6be dd26 bc3e a52a 32bf 2ca4 66be
000000c0: c1d0 15bf 1e1d eabe 19de 1cbf 28f9 34bf
000000d0: be95 74bc ab13 de3d 9274 903e 8b14 17bf
000000e0: ddd9 34bf a5d9 4fbe c0a4 bdbe 1141 603d
000000f0: 0bcc 34bf 3d61 f1be 0e5c 12bf aad5 03bf
00000100: 7a55 a83e ee99 913e ab84 40be 51cd 03bf
00000110: c89d e8be 8545 0cbe a1f7 83bd ec54 28bf
00000120: 414b c2be 7b17 e5be 099e 00bf 64d6 3fbf
00000130: ae7b 32bd 8a6f c7be 62e4 91be 0408 a2be
00000140: 775b b3be 02e2 33bf 15ea 16bf f7a5 79bd
00000150: ee5c 43bf d299 4fbd 2d07 acbe 3a90 bebf
00000160: f864 763e 90fd 10be 3139 49be 6a13 afbe
00000170: b825 c2bd 3546 fbbe ec6d 3abe 2bc3 71be
00000180: 7ed7 33bf 8c3d 893e a088 3dbf 4bc3 0dbf
00000190: ca3b f5be 8740 19bf 980b 2bbf b394 babe
000001a0: 7227 25be b484 a7be f7c7 a93e f868 93bf
000001b0: f502 be3e eae4 3ebe d642 2f3e 27bd d5be
000001c0: 6b87 9c3d 1521 9fbe 67a3 b3be eb1f 743e
000001d0: 81b8 153f 9d1d a3be 2225 803d 0e16 09bf
000001e0: 927f 9abe a6a1 c7be 3d65 a63e 5981 e1bc
000001f0: f8b7 7abc 6ab6 923c 31dc 01bf 102a 5fbf
00000200: 00c0 fa3e 06a0 7abf ceb3 fcbd e263 f2be
00000210: 4891 aabe 4f66 cf3e ec02 51be a1c0 abbe
00000220: b716 85bf 991c 27bf 4802 2bbf 94ed 12bf
00000230: 8d5f c3bf 6138 26be 0efd c43d 2aa2 0abf
00000240: 25fa c7be 24d5 10bf 9096 4bbf dc36 74be
00000250: 23cc 88bf 46df eb3d 9dba 32bf ef5e 30bf
00000260: 02b9 efbd e55a 6cbe 834a c83e cfe7 5cbf
00000270: 9cc4 043e b893 11bf 8bb5 25bf 14f2 8abe
00000280: 2dba 91be 63ba 85be efde 2ebf 646d dbbe
00000290: 1756 86be 8b28 ae3d b98b a93d 5a22 2cbf
000002a0: 255f 28bf b5c9 f5be 922f 8dbd 3abe aabe
000002b0: 72f4 21bf 0273 efbe aeec 48be 94c2 8dbe
000002c0: 3090 07bf e52c 21bf 0deb 0fbf 19a5 2bbf
000002d0: d540 fc3e 9320 81bd 9d12 ebbe e843 8ebd
000002e0: 85f0 083d 9227 26bf d934 8cbf 7b4c 84be
000002f0: ef68 d7be a7db 333d b2a9 28bf 7639 0bbf
00000300: b828 2a3f 7b8a 1fbf 7577 d9bd 1bc7 97be
00000310: ace7 423e ee73 453f 0a17 013f 5766 be3e
00000320: fa54 aabd d83f 1cbf 2fde d73e a5fe 67be
00000330: ec66 463e 2cdc 5f3e 6cf8 513e ffd6 093f
00000340: ee91 c93e 8d4a 4ebe 5701 393e c53d 9f3e
00000350: 756d e63e 18c8 0ebd 8965 513e fd67 e6bd
00000360: 74c7 f83e 5b0f 27be 23e0 b73c 5e83 d33c
00000370: 8791 04be dcc2 313e 0136 273f b131 03be
00000380: 3aa0 8fbe ea41 9b3c e493 a23e 8a9c 47be
00000390: c80a 823d 7a76 d4bd 7e76 913e d490 a9be
000003a0: a535 0abf 3499 4bbd e5fc 073f a9d3 15bf
000003b0: 4c26 4dbd 84e5 0b3f 1d85 fc3d 1083 0cbf
000003c0: 0076 0c3f 22a8 793e 3826 e03d e44f 73bd
000003d0: 653c 0d3e 154f 95bd df39 0ebe 6728 99bc
000003e0: cdb8 183f e17b d6be 6899 6dbf eb03 033f
000003f0: 5991 8b3e fbfc da3e 6345 bbbd 0093 72bd

blocks.0.cat_mlp.mlps.0.b_out f4 [8]
-0.3927537 -0.46591645 -0.48855367 0.1672658 -0.44225997 0.74846673 0.3772882 -0.467366
00000000: 0317 c9be 9a8c eebe b523 fabe ba47 2b3e
00000010: e66f e2be 849b 3f3f eb2b c13e 994a efbe

blocks.0.cat_mlp.mlps.0.W_read.W f4 [2, 6]
-0.4014175 -0.083492495 0.5227587 -1.9855095 0.32509145 0.57808703 -0.2941817 1.102228
0.87146676 -0.7998877 1.7809948 0.27972078
00000000: 9886 cdbe 1dfe aabd 84d3 053f 2d25 febf
00000010: 6372 a63e 83fd 133f fc9e 96be cf15 8d3f
00000020: 7218 5f3f 71c5 4cbf a3f7 e33f 9037 8f3e

blocks.0.cat_mlp.mlps.0.W_read.E f4 [6, 8, 8]
1.0 0.0 0.0 0.0 0.0 0.0 0.0 0.0
0.0 1.0 0.0 0.0 0.0 0.0 0.0 0.0
0.0 0.0 1.0 0.0 0.0 0.0 0.0 0.0
0.0 0.0 0.0 1.0 0.0 0.0 0.0 0.0
0.0 0.0 0.0 0.0 1.0 0.0 0.0 0.0
0.0 0.0 0.0 0.0 0.0 1.0 0.0 0.0
0.0 0.0 0.0 0.0 0.0 0.0 1.0 0.0
0.0 0.0 0.0 0.0 0.0 0.0 0.0 1.0
1.0 0.0 0.0 0.0 0.0 0.0 0.0 0.0
0.0 1.0 0.0 0.0 0.0 0.0 0.0 0.0
0.0 0.0 1.0 0.0 0.0 0.0 0.0 0.0
0.0 0.0 0.0 1.0 0.0 0.0 0.0 0.0
0.0 0.0 0.0 0.0 1.0 0.0 0.0 0.0
0.0 0.0 0.0 0.0 0.0 1.0 0.0 0.0
0.0 0.0 0.0 0.0 0.0 0.0 1.0 0.0
0.0 0.0 0.0 0.0 0.0 0.0 0.0 1.0
1.0 0.0 0.0 0.0 0.0 0.0 0.0 0.0
0.0 1.0 0.0 0.0 0.0 0.0 0.0 0.0
0.0 0.0 1.0 0.0 0.0 0.0 0.0 0.0
0.0 0.0 0.0 1.0 0.0 0.0 0.0 0.0
0.0 0.0 0.0 0.0 1.0 0.0 0.0 0.0
0.0 0.0 0.0 0.0 0.0 1.0 0.0 0.0
0.0 0.0 0.0 0.0 0.0 0.0 1.0 0.0
0.0 0.0 0.0 0.0 0.0 0.0 0.0 1.0
1.0 0.0 0.0 0.0 0.0 0.0 0.0 0.0
0.0 1.0 0.0 0.0 0.0 0.0 0.0 0.0
0.0 0.0 1.0 0.0 0.0 0.0 0.0 0.0
0.0 0.0 0.0 1.0 0.0 0.0 0.0 0.0
0.0 0.0 0.0 0.0 1.0 0.0 0.0 0.0
0.0 0.0 0.0 0.0 0.0 1.0 0.0 0.0
0.0 0.0 0.0 0.0 0.0 0.0 1.0 0.0
0.0 0.0 0.0 0.0 0.0 0.0 0.0 1.0
00000000: 0000 803f 0000 0000 0000 0000 0000 0000
00000010: 0000 0000 0000 0000 0000 0000 0000 0000
00000020: 0000 0000 0000 803f 0000 0000 0000 0000
00000030: 0000 0000 0000 0000 0000 0000 0000 0000
00000040: 0000 0000 0000 0000 0000 803f 0000 0000
00000050: 0000 0000 0000 0000 0000 0000 0000 0000
00000060: 0000 0000 0000 0000 0000 0000 0000 803f
00000070: 0000 0000 0000 0000 0000 0000 0000 0000
00000080: 0000 0000 0000 0000 0000 0000 0000 0000
00000090: 0000 803f 0000 0000 0000 0000 0000 0000
000000a0: 0000 0000 0000 0000 0000 0000 0000 0000
000000b0: 0000 0000 0000 803f 0000 0000 0000 0000
000000c0: 0000 0000 0000 0000 0000 0000 0000 0000
000000d0: 0000 0000 0000 0000 0000 803f 0000 0000
000000e0: 0000 0000 0000 0000 0000 0000 0000 0000
000000f0: 0000 0000 0000 0000 0000 0000 0000 803f
00000100: 0000 803f 0000 0000 0000 0000 0000 0000
00000110: 0000 0000 0000 0000 0000 0000 0000 0000
00000120: 0000 0000 0000 803f 0000 0000 0000 0000
00000130: 0000 0000 0000 0000 0000 0000 0000 0000
00000140: 0000 0000 0000 0000 0000 803f 0000 0000
00000150: 0000 0000 0000 0000 0000 0000 0000 0000
00000160: 0000 0000 0000 0000 0000 0000 0000 803f
00000170: 0000 0000 0000 0000 0000 0000 0000 0000
00000180: 0000 0000 0000 0000 0000 0000 0000 0000
00000190: 0000 803f 0000 0000 0000 0000 0000 0000
000001a0: 0000 0000 0000 0000 0000 0000 0000 0000
000001b0: 0000 0000 0000 803f 0000 0000 0000 0000
000001c0: 0000 0000 0000 0000 0000 0000 0000 0000
000001d0: 0000 0000 0000 0000 0000 803f 0000 0000
000001e0: 0000 0000 0000 0000 0000 0000 0000 0000
000001f0: 0000 0000 0000 0000 0000 0000 0000 803f
00000200: 0000 803f 0000 0000 0000 0000 0000 0000
00000210: 0000 0000 0000 0000 0000 0000 0000 0000
00000220: 0000 0000 0000 803f 0000 0000 0000 0000
00000230: 0000 0000 0000 0000 0000 0000 0000 0000
00000240: 0000 0000 0000 0000 0000 803f 0000 0000
00000250: 0000 0000 0000 0000 0000 0000 0000 0000
00000260: 0000 0000 0000 0000 0000 0000 0000 803f
00000270: 0000 0000 0000 0000 0000 0000 0000 0000
00000280: 0000 0000 0000 0000 0000 0000 0000 0000
00000290: 0000 803f 0000 0000 0000 0000 0000 0000
000002a0: 0000 0000 0000 0000 0000 0000 0000 0000
000002b0: 0000 0000 0000 803f 0000 0000 0000 0000
000002c0: 0000 0000 0000 0000 0000 0000 0000 0000
000002d0: 0000 0000 0000 0000 0000 803f 0000 0000
000002e0: 0000 0000 0000 0000 0000 0000 0000 0000
000002f0: 0000 0000 0000 0000 0000 0000 0000 803f
00000300: 0000 803f 0000 0000 0000 0000 0000 0000
00000310: 0000 0000 0000 0000 0000 0000 0000 0000
00000320: 0000 0000 0000 803f 0000 0000 0000 0000
00000330: 0000 0000 0000 0000 0000 0000 0000 0000
00000340: 0000 0000 0000 0000 0000 803f 0000 0000
00000350: 0000 0000 0000 0000 0000 0000 0000 0000
00000360: 0000 0000 0000 0000 0000 0000 0000 803f
00000370: 0000 0000 0000 0000 0000 0000 0000 0000
00000380: 0000 0000 0000 0000 0000 0000 0000 0000
00000390: 0000 803f 0000 0000 0000 0000 0000 0000
000003a0: 0000 0000 0000 0000 0000 0000 0000 0000
000003b0: 0000 0000 0000 803f 0000 0000 0000 0000
000003c0: 0000 0000 0000 0000 0000 0000 0000 0000
000003d0: 0000 0000 0000 0000 0000 803f 0000 0000
000003e0: 0000 0000 0000 0000 0000 0000 0000 0000
000003f0: 0000 0000 0000 0000 0000 0000 0000 803f

blocks.0.cat_mlp.mlps.1.W_in f4 [64, 16]
-0.028587252 -0.073313795 -0.059200183 0.0032161383 -0.05813016 -0.086822785 -0.005202657 -0.11278928
0.073371395 0.05819237 -0.1524382 -0.31645754 -0.32331672 -0.10884129 0.017213618 0.0037873867
-0.17254569 -0.28906667 -0.36118442 -0.1661924 -0.3294802 -0.44791743 -0.3434275 -0.2664651
-0.398294 -0.20728455 -0.4237468 -0.30374286 -0.30451 -0.48784667 -0.42966884 -0.3326921
-0.42232236 -0.39304805 -0.17563927 -0.0713572 -0.45612338 -0.30792418 -0.22893186 -0.48702502
-0.31886914 -0.31175974 -0.2847364 -0.21776298 -0.34357318 -0.54442865 -0.42956227 -0.33026767
0.34698254 0.4035666 0.49613047 0.57384634 0.6001657 0.5908786 0.4060287 0.3972667
0.60879916 0.27014133 0.5038795 0.51833093 0.526044 0.6688561 0.4786335 0.45656574
-0.016780319 -0.4143763 -0.23686884 -0.23419844 -0.42084226 -0.31532672 -0.2363527 -0.31652063
-0.37365454 -0.28517023 -0.21556439 -0.34431383 -0.07972691 -0.18401396 -0.2138052 -0.06408032
-0.30365774 -0.2217558 -0.33486497 -0.2992969 -0.15593462 -0.28341174 -0.39085147 -0.3823728
-0.36030114 -0.33553195 -0.28507423 -0.1745071 -0.17185816 -0.23958892 -0.4160838 -0.37235188
-0.20855227 -0.41615862 -0.27844575 -0.28599593 -0.47347623 -0.66062 -0.3074323 -0.2337575
-0.49343672 -0.23800549 -0.09112654 -0.33955917 -0.33716133 -0.34454814 -0.28973067 -0.36487657
-0.31186703 -0.13692847 -0.21033375 -0.32644626 -0.15800363 -0.35650247 -0.22180198 -0.48674202
-0.08459697 -0.33397642 -0.16337954 -0.51000625 -0.12634571 -0.38907197 -0.41108558 -0.3748198
0.36027417 0.15315159 0.5348529 0.42352793 0.4479348 0.45985568 0.24579968 0.49630097
0.37837267 0.35534137 0.43958515 0.5118775 0.51578015 0.33945313 0.46858916 0.39607108
-0.37433842 -0.4459516 -0.22948 -0.097408116 -0.30828595 -0.3779956 -0.19175373 -0.33593127
-0.22461186 -0.29099125 -0.40028813 -0.3124206 -0.49177307 -0.347884 -0.50881255 -0.16435464
0.68070924 0.77915984 0.6798579 0.5761552 0.5432093 0.5689051 0.5785801 0.5277226
0.588219 0.6058825 0.6744924 0.48755845 0.45157993 0.51226366 0.7375856 0.5496515
0.67924637 0.69979316 0.5827941 0.5440454 0.48852563 0.5502681 0.37180573 0.49735475
0.6817325 0.19461551 0.5492494 0.65410876 0.5131568 0.64369786 0.39539236 0.76637304
0.28093213 -0.17857009 0.33935568 0.3575826 0.43215445 0.034916364 -0.21263102 -0.23819397
0.33905315 -0.08262565 0.34143177 0.25829118 0.25192505 -0.009769196 -0.05928665 0.09586553
-0.171327 -0.14085287 0.12758648 -0.00010263789 -0.2743372 -0.25351092 -0.520223 -0.36026582
-0.47817126 -0.38193002 -0.13009556 0.43976024 -0.2955381 -0.46609178 -0.43758795 -0.20323573
-0.44834957 -0.40282682 -0.22457765 -0.42393655 -0.33184776 -0.29355416 -0.09315968 -0.24403296
-0.26845926 -0.58369875 -0.16048373 -0.27348298 -0.2615964 -0.39078888 -0.43737516 -0.43218434
0.7471156 0.5356987 0.62478197 0.49852362 0.5615289 0.6773983 0.54979175 0.60319644
0.39549658 0.508042 0.4749354 0.35817268 0.578179 0.4827233 0.5141995 0.67419785
00000000: d02f eabc 8b25 96bd e47b 72bd d9c5 523b
00000010: e419 6ebd 25d0 b1bd 0d7b aabb 11fe e6bd
00000020: be43 963d 1f5b 6e3d c218 1cbe b906 a2be
00000030: c589 a5be 2fe8 debd 9303 8d3c ce35 783b
00000040: d1af 30be 8c00 94be 2aed b8be 572e 2abe
00000050: a1b1 a8be 6f55 e5be bbd5 afbe 1d6e 88be
00000060: 31ed cbbe 6742 54be 57f5 d8be 2f84 9bbe
00000070: bce8 9bbe 0ac7 f9be 8efd dbbe 9e56 aabe
00000080: a33a d8be 983d c9be c8da 33be b923 92bd
00000090: 0189 e9be 3da8 9dbe 1d6d 6abe 585b f9be
000000a0: d142 a3be f99e 9fbe f8c8 91be 42fd 5ebe
000000b0: d3e8 afbe ad5f 0bbf 96ef dbbe d818 a9be
000000c0: b2a7 b13e 48a0 ce3e d004 fe3e 98e7 123f
000000d0: 76a4 193f d243 173f fee2 cf3e 8a66 cb3e
000000e0: 43da 1b3f f74f 8a3e 3ffe 003f 56b1 043f
000000f0: d2aa 063f 273a 2b3f 730f f53e fcc2 e93e
00000100: e176 89bc 2129 d4be bf8d 72be b7d1 6fbe
00000110: a378 d7be 8172 a1be 7106 72be fe0e a2be
00000120: a64f bfbe d501 92be e9bc 5cbe e749 b0be
00000130: dd47 a3bd 286e 3cbe c0ef 5abe 8b3c 83bd
00000140: 0779 9bbe f413 63be 6c73 abbe 713d 99be
00000150: 53ad 1fbe 581b 91be af1d c8be 5ec6 c3be
00000160: 6479 b8be d8ca abbe 40f5 91be fdb1 32be
00000170: 96fb 2fbe cc56 75be f008 d5be e8a4 bebe
00000180: ba8e 55be be12 d5be 7190 8ebe 0f6e 92be
00000190: 7a6b f2be 641e 29bf c467 9dbe 205e 6fbe
000001a0: bda3 fcbe b6b7 73be 8da0 babd b3da adbe
000001b0: 69a0 acbe 9d68 b0be 9457 94be 1ad1 babe
000001c0: 09ad 9fbe fa36 0cbe bb61 57be f723 a7be
000001d0: b4cb 21be 7e87 b6be 0f20 63be 4036 f9be
000001e0: 2d41 adbd f5fe aabe f74c 27be c58f 02bf
000001f0: c560 01be 7134 c7be cf79 d2be 61e8 bfbe
00000200: db75 b83e c5d3 1c3e 1fec 083f a7d8 d83e
00000210: b657 e53e 3472 eb3e e9b2 7b3e 291b fe3e
00000220: 10ba c13e 4eef b53e 4e11 e13e 670a 033f
00000230: 2b0a 043f cdcc ad3e ebea ef3e d4c9 ca3e
00000240: 49a9 bfbe c553 e4be cefc 6abe e87d c7bd
00000250: a8d7 9dbe a488 c1be 175b 44be 2fff abbe
00000260: a700 66be cefc 94be 91f2 ccbe 98f5 9fbe
00000270: aec9 fbbe da1d b2be 8a41 02bf 954c 28be
00000280: f642 2e3f 0577 473f 2b0b 2e3f e87e 133f
00000290: c40f 0b3f c4a3 113f d31d 143f d418 073f
000002a0: 8595 163f 1e1b 1b3f 89ab 2c3f 43a1 f93e
000002b0: 7c35 e73e b623 033f 69d2 3c3f f6b5 0c3f
000002c0: 17e3 2d3f a525 333f fe31 153f 8f46 0b3f
000002d0: 0820 fa3e 5fde 0c3f 525d be3e 48a5 fe3e
000002e0: 0586 2e3f 4a49 473e 9c9b 0c3f ac73 273f
000002f0: 3e5e 033f 62c9 243f de70 ca3e 0631 443f
00000300: 56d6 8f3e 14db 36be 07c0 ad3e 1115 b73e
00000310: 5943 dd3e 7604 0f3d f2bb 59be 1fe9 73be
00000320: 6098 ad3e a337 a9bd 25d0 ae3e be3e 843e
00000330: 52fc 803e fa0e 20bc 8fd6 72bd 2655 c43d
00000340: 5870 2fbe bc3b 10be 08a6 023e 4c3f d7b8
00000350: ed75 8cbe 2fcc 81be 562d 05bf c374 b8be
00000360: ddd2 f4be 558c c3be c537 05be 4128 e13e
00000370: c550 97be 95a3 eebe 870b e0be 071d 50be
00000380: 138e e5be 513f cebe aff7 65be 360e d9be
00000390: f3e7 a9be bb4c 96be 81ca bebd c7e3 79be
000003a0: 7e73 89be 486d 15bf d955 24be f605 8cbe
000003b0: f7ef 85be 7b15 c8be a3ef dfbe 4447 ddbe
000003c0: f842 3f3f 8d23 093f b6f1 1f3f 7d3e ff3e
000003d0: 5cc0 0f3f fa69 2d3f 27bf 0c3f 156b 1a3f
000003e0: 877e ca3e 0a0f 023f bc2a f33e 6962 b73e
000003f0: 8a03 143f 8227 f73e 94a2 033f 3b98 2c3f

blocks.0.cat_mlp.mlps.1.b_in f4 [64]
0.00039619615 -0.30026808 -0.30855238 0.5210819 -0.30085543 -0.30057997 -0.30025795 -0.30111417
0.42942145 -0.30027047 0.64251816 0.5460395 0.11012192 -0.32044318 -0.3002653 0.51376235
0.3626024 -0.30027226 -0.30014163 0.5502186 -0.30027458 0.63847446 -0.300274 0.40548596
0.68398905 0.5975 0.7240383 -0.30026078 -0.300271 0.5840061 -0.30027422 -0.3002725
0.66774476 -0.30025527 -0.30756393 0.52363706 0.44363418 0.43961155 -0.31395745 -0.30027133
0.4947382 0.6701628 0.14460772 0.4483342 -0.3004777 0.2209305 0.37588987 -0.30002037
-0.29898146 0.44119537 -0.30025935 -0.35799897 -0.3038625 0.5734669 -0.304438 -0.30013928
0.34183392 -0.3002448 0.63611245 -0.1811891 0.60218984 -0.30026412 -0.30026215 0.65134335
00000000: 8cb8 cf39 bdbc 99be 94fa 9dbe a065 053f
00000010: b909 9abe 9ee5 99be 69bb 99be a32b 9abe
00000020: 21dd db3e 0dbd 99be 127c 243f 3fc9 0b3f
00000030: 9a87 e13d 2111 a4be 60bc 99be ee85 033f
00000040: 06a7 b93e 49bd 99be 2aac 99be 20db 0c3f
00000050: 97bd 99be 1073 233f 84bd 99be db9b cf3e
00000060: e819 2f3f c3f5 183f 935a 393f c8bb 99be
00000070: 1fbd 99be 6c81 153f 8bbd 99be 51bd 99be
00000080: 52f1 2a3f 0fbb 99be 0579 9dbe 140d 063f
00000090: 0524 e33e c414 e13e 08bf a0be 2abd 99be
000000a0: 534e fd3e ca8f 2b3f 0c14 143e 0f8c e53e
000000b0: 37d8 99be 9b3b 623e a374 c03e 459c 99be
000000c0: 1914 99be 5ce4 e13e 98bb 99be a44b b7be
000000d0: de93 9bbe bace 123f 4cdf 9bbe dbab 99be
000000e0: db04 af3e b0b9 99be 44d8 223f a389 39be
000000f0: 1d29 1a3f 38bc 99be f6bb 99be 70be 263f

blocks.0.cat_mlp.mlps.1.W_out f4 [8, 64]
0.03655776 -0.35381934 0.22659323 -0.5802067 -0.3945343 0.1039897 -0.32058224 0.056273375
-1.0690433 -0.21643557 -0.61712575 0.1908725 -0.45221803 0.46958736 -0.11588576 -0.52424806
0.1409714 -0.33558777 -0.16013893 -0.62577724 0.0851947 -0.6009065 -0.5745254 -0.5356588
-0.78799295 -0.9307513 -0.84826964 -0.34461114 0.3132319 -0.8469299 -0.40425628 -0.4428881
-0.41647235 -0.07817161 0.43726903 -0.16412815 -0.79516995 -0.6028084 -0.5888798 -0.10976098
-0.83612454 -0.2928526 -0.6277742 -0.8984359 -0.30120662 -0.014886064 -0.6562228 0.041143186
0.01444934 -0.6252482 -0.056711107 -0.30690327 0.23487006 -1.0675393 -0.6571278 -0.3306021
-1.1328477 -0.52679974 -0.89771503 -0.3599575 -0.21174042 -0.516173 0.33322966 -0.0072739697
0.68322355 0.09390339 -0.1631846 1.1660504 0.16740003 0.8784604 0.38851506 0.19470173
0.97686577 -0.012121312 0.9184731 1.5037897 0.22246827 0.20296673 -0.053804208 0.992338
0.58446115 0.08689455 0.22878942 1.0470479 0.45738798 1.2028092 0.015150401 0.8378158
1.2595243 1.0102099 1.4955821 0.1639725 -0.3644341 1.0391772 0.39284518 0.17356245
1.9416075 0.073814884 0.10437014 1.2935274 0.76512533 0.70643586 0.25768584 0.07694715
0.9418579 1.1783663 0.21720715 0.9133077 0.054304022 0.26444262 0.77809095 1.0607643
-0.022445956 0.755682 0.5168228 0.2151489 0.39760432 1.1827931 0.109091125 0.43141922
0.4358826 0.49317318 1.7159854 0.046289552 1.3918436 0.47497165 -0.25191462 1.322742
-0.017822538 -0.10608392 -0.73644876 -0.63017833 -0.6101382 -0.20951141 0.30500546 -0.61113197
-0.151475 -0.017244564 -0.47028214 -0.7415693 -0.5007455 -0.6303545 -0.63001 -0.9103969
-0.08874907 -0.24207048 -0.041717824 -0.43782318 -0.59379905 -0.6767918 -0.4485574 -0.39692238
0.044827342 -1.1308573 -0.6146944 0.16799879 -1.0071476 -0.740331 -0.7143741 -0.597765
-1.2559264 -0.32774732 -0.3764665 -0.25979385 -1.0741478 -0.45118847 -0.55162984 -0.4592721
-1.0528611 -1.2142425 -0.38348803 -0.7064663 -0.07771927 -0.706141 -0.8689057 -0.05745462
0.15924104 -1.1272969 0.19196843 0.22665977 0.31910923 -0.71572894 -0.43690807 -0.7204462
-0.3189984 -0.94649166 -0.181059 -0.7855572 -0.24373147 0.0038291316 0.22616394 -0.5858569
-0.23100324 -0.015334767 0.22074343 0.23090743 -0.18296748 -0.2689309 0.5300613 0.19962637
0.8245265 0.22852063 -0.20470463 0.745658 0.46569404 0.63305664 0.23531884 0.40822205
1.1430153 0.09086909 0.57002455 0.014125876 -0.3603982 0.4035846 -0.14723752 0.35532475
-0.28781515 0.07691573 0.004541077 0.20643735 0.0348502 0.20064464 -0.026320137 0.25595152
-0.046143465 0.70731103 0.39507046 0.5098148 0.52206504 1.2205619 -0.4949667 -0.010709494
0.6890759 0.17967696 0.2520005 0.1527218 0.3728039 0.30855736 0.31208664 -0.1834841
0.16211942 0.15285774 0.21799387 0.1481561 -0.25932467 -0.028972149 0.21895045 0.27645305
0.23379178 0.35031143 0.54297566 0.051352706 0.3759926 -0.20714115 0.2065528 0.04661976
00000000: 97bd 153d cf27 b5be 0e08 683e 6d88 14bf
00000010: 6600 cabe 8df8 d43d 5b23 a4be e97e 663d
00000020: 69d6 88bf 49a1 5dbe f4fb 1dbf 1574 433e
00000030: 1f89 e7be c16d f03e 8355 edbd 1f35 06bf
00000040: cf5a 103e 29d2 abbe 76fb 23be f032 20bf
00000050: 8f7a ae3d 02d5 19bf 1914 13bf ef20 09bf
00000060: e8b9 49bf b845 6ebf 3328 59bf df70 b0be
00000070: ee5f a03e 66d0 58bf aefa cebe 3bc2 e2be
00000080: dd3b d5be 7018 a0bd bae1 df3e 3611 28be
00000090: 4290 4bbf a751 1abf d4c0 16bf 5dca e0bd
000000a0: 420c 56bf c7f0 95be cfb5 20bf e5ff 65bf
000000b0: c137 9abe aee4 73bc 38fe 27bf c285 283d
000000c0: edbc 6c3c 4410 20bf e849 68bd 6d22 9dbe
000000d0: c781 703e 21a5 88bf 8739 28bf ae44 a9be
000000e0: 2701 91bf 59dc 06bf a7d0 65bf 594c b8be
000000f0: 7bd2 58be ea23 04bf 149d aa3e 7b5a eebb
00000100: bde7 2e3f 6c50 c03d dd19 27be 2441 953f
00000110: ea6a 2b3e c8e2 603f 72eb c63e e45f 473e
00000120: e013 7a3f 7898 46bc 0e21 6b3f 2e7c c03f
00000130: b9ce 633e 83d6 4f3e cd61 5cbd dd09 7e3f
00000140: 3f9f 153f c5f5 b13d c647 6a3e aa05 863f
00000150: c22e ea3e a7f5 993f 6339 783c 197b 563f
00000160: 1838 a13f 8f4e 813f 3c6f bf3f 68e8 273e
00000170: 1b97 babe c203 853f 0123 c93e 5bba 313e
00000180: 9886 f83f 422c 973d 03c0 d53d 4e92 a53f
00000190: 41df 433f fbd8 343f 66ef 833e 7896 9d3d
000001a0: 991d 713f b5d4 963f 8d6b 5e3e 89ce 693f
000001b0: e56d 5e3d 0665 873e f830 473f 20c7 873f
000001c0: 95e0 b7bc 6074 413f 804e 043f fe4f 5c3e
000001d0: cb92 cb3e c465 973f 2b6b df3d fbe2 dc3e
000001e0: 012c df3e 3281 fc3e 69a5 db3f 1d9a 3d3d
000001f0: ee27 b23f 7c2f f33e f4fa 80be 9c4f a93f
00000200: 9200 92bc 8742 d9bd e887 3cbf 5e53 21bf
00000210: 0432 1cbf 298a 56be ad29 9c3e 2573 1cbf
00000220: 431c 1bbe 7944 8dbc d2c8 f0be 7cd7 3dbf
00000230: db30 00bf ea5e 21bf 5648 21bf c50f 69bf
00000240: 13c2 b5bd 53e1 77be 4fe0 2abd 5c2a e0be
00000250: 3703 18bf 3a42 2dbf 51a9 e5be 6939 cbbe
00000260: e09c 373d efbf 90bf 9d5c 1dbf e007 2c3e
00000270: 36ea 80bf 5586 3dbf 39e1 36bf 2107 19bf
00000280: 32c2 a0bf 7fce a7be 38c0 c0be b303 85be
00000290: ad7d 89bf 2d02 e7be 9d37 0dbf b625 ebbe
000002a0: 27c4 86bf 4c6c 9bbf 8b58 c4be fada 34bf
000002b0: 482b 9fbd a8c5 34bf 9b70 5ebf 8955 6bbd
000002c0: 1510 233e 444b 90bf 5f93 443e 8019 683e
000002d0: 4962 a33e 033a 37bf 6ab2 dfbe 2a6f 38bf
000002e0: c253 a3be 474d 72bf 8867 39be 471a 49bf
000002f0: be94 79be 2bf2 7a3b 8597 673e b8fa 15bf
00000300: 1d8c 6cbe ad3e 7bbc 910a 623e ff72 6c3e
00000310: d45b 3bbe 50b1 89be 19b2 073f db6a 4c3e
00000320: 2b14 533f 5001 6a3e 179e 51be 71e3 3e3f
00000330: 736f ee3e 0010 223f 6cf7 703e 7b02 d13e
00000340: 534e 923f 9319 ba3d 21ed 113f 3870 673c
00000350: 1d86 b8be a4a2 ce3e 6fc5 16be 20ed b53e
00000360: 825c 93be ff85 9d3d 51cd 943b 5064 533e
00000370: 15bf 0e3d ca75 4d3e 549d d7bc 140c 833e
00000380: ee00 3dbd 5612 353f ad46 ca3e 3983 023f
00000390: 0ea6 053f 5f3b 9c3f 466c fdbe e076 2fbc
000003a0: 4767 303f 3dfd 373e 3606 813e 1b63 1c3e
000003b0: 27e0 be3e 3bfb 9d3e d2c9 9f3e 42e3 3bbe
000003c0: a202 263e bd86 1c3e c939 5f3e 3cb6 173e
000003d0: 34c6 84be 0057 edbc 8c34 603e 418b 8d3e
000003e0: 1d67 6f3e 055c b33e 7400 0b3f 3757 523d
000003f0: 1a82 c03e cf1c 54be 9482 533e 5df4 3e3d

blocks.0.cat_mlp.mlps.1.b_out f4 [8]
-0.44386575 0.71452737 -0.4723715 0.43414095 0.2664612 -0.45381704 -0.38826448 -0.4711419
00000000: 5f42 e3be 44eb 363f adda f1be b947 de3e
00000010: 9a6d 883e b55a e8be 9aca c6be 8339 f1be
