output/histheads04mlps02/model.pt (torch, 23642 bytes, 27 tensors)

embed.W_E f4 [8, 8]
000000 00 00 20 41 00 00 20 c1 00 00 20 c1 00 00 20 c1
       10.0 -10.0 -10.0 -10.0
000010 00 00 20 c1 00 00 20 c1 00 00 20 c1 00 00 20 c1
       -10.0 -10.0 -10.0 -10.0
000020 00 00 20 c1 00 00 20 41 00 00 20 c1 00 00 20 c1
       -10.0 10.0 -10.0 -10.0
000030 00 00 20 c1 00 00 20 c1 00 00 20 c1 00 00 20 c1
       -10.0 -10.0 -10.0 -10.0
000040 00 00 20 c1 00 00 20 c1 00 00 20 41 00 00 20 c1
       -10.0 -10.0 10.0 -10.0
000050 00 00 20 c1 00 00 20 c1 00 00 20 c1 00 00 20 c1
       -10.0 -10.0 -10.0 -10.0
000060 00 00 20 c1 00 00 20 c1 00 00 20 c1 00 00 20 41
       -10.0 -10.0 -10.0 10.0
000070 00 00 20 c1 00 00 20 c1 00 00 20 c1 00 00 20 c1
       -10.0 -10.0 -10.0 -10.0
000080 00 00 20 c1 00 00 20 c1 00 00 20 c1 00 00 20 c1
       -10.0 -10.0 -10.0 -10.0
000090 00 00 20 41 00 00 20 c1 00 00 20 c1 00 00 20 c1
       10.0 -10.0 -10.0 -10.0
0000a0 00 00 20 c1 00 00 20 c1 00 00 20 c1 00 00 20 c1
       -10.0 -10.0 -10.0 -10.0
0000b0 00 00 20 c1 00 00 20 41 00 00 20 c1 00 00 20 c1
       -10.0 10.0 -10.0 -10.0
0000c0 00 00 20 c1 00 00 20 c1 00 00 20 c1 00 00 20 c1
       -10.0 -10.0 -10.0 -10.0
0000d0 00 00 20 c1 00 00 20 c1 00 00 20 41 00 00 20 c1
       -10.0 -10.0 10.0 -10.0
0000e0 00 00 20 c1 00 00 20 c1 00 00 20 c1 00 00 20 c1
       -10.0 -10.0 -10.0 -10.0
0000f0 00 00 20 c1 00 00 20 c1 00 00 20 c1 00 00 20 41
       -10.0 -10.0 -10.0 10.0

num_embed.W_E f4 [8, 1]
000000 00 00 80 3f 00 00 80 3f 00 00 80 3f 00 00 80 3f
       1.0 1.0 1.0 1.0
000010 00 00 80 3f 00 00 80 3f 00 00 80 3f 00 00 80 3f
       1.0 1.0 1.0 1.0

pos_embed.W f4 [8, 8]
000000 00 00 80 3f 00 00 00 00 00 00 00 00 00 00 00 00
       1.0 0.0 0.0 0.0
000010 00 00 00 00 00 00 00 00 00 00 00 00 00 00 00 00
       0.0 0.0 0.0 0.0
000020 00 00 00 00 00 00 80 3f 00 00 00 00 00 00 00 00
       0.0 1.0 0.0 0.0
000030 00 00 00 00 00 00 00 00 00 00 00 00 00 00 00 00
       0.0 0.0 0.0 0.0
000040 00 00 00 00 00 00 00 00 00 00 80 3f 00 00 00 00
       0.0 0.0 1.0 0.0
000050 00 00 00 00 00 00 00 00 00 00 00 00 00 00 00 00
       0.0 0.0 0.0 0.0
000060 00 00 00 00 00 00 00 00 00 00 00 00 00 00 80 3f
       0.0 0.0 0.0 1.0
000070 00 00 00 00 00 00 00 00 00 00 00 00 00 00 00 00
       0.0 0.0 0.0 0.0
000080 00 00 00 00 00 00 00 00 00 00 00 00 00 00 00 00
       0.0 0.0 0.0 0.0
000090 00 00 80 3f 00 00 00 00 00 00 00 00 00 00 00 00
       1.0 0.0 0.0 0.0
0000a0 00 00 00 00 00 00 00 00 00 00 00 00 00 00 00 00
       0.0 0.0 0.0 0.0
0000b0 00 00 00 00 00 00 80 3f 00 00 00 00 00 00 00 00
       0.0 1.0 0.0 0.0
0000c0 00 00 00 00 00 00 00 00 00 00 00 00 00 00 00 00
       0.0 0.0 0.0 0.0
0000d0 00 00 00 00 00 00 00 00 00 00 80 3f 00 00 00 00
       0.0 0.0 1.0 0.0
0000e0 00 00 00 00 00 00 00 00 00 00 00 00 00 00 00 00
       0.0 0.0 0.0 0.0
0000f0 00 00 00 00 00 00 00 00 00 00 00 00 00 00 80 3f
       0.0 0.0 0.0 1.0

blocks.0.cat_attn.mask f4 [8, 8]
000000 00 00 80 3f 00 00 00 00 00 00 00 00 00 00 00 00
       1.0 0.0 0.0 0.0
000010 00 00 00 00 00 00 00 00 00 00 00 00 00 00 00 00
       0.0 0.0 0.0 0.0
000020 00 00 80 3f 00 00 80 3f 00 00 00 00 00 00 00 00
       1.0 1.0 0.0 0.0
000030 00 00 00 00 00 00 00 00 00 00 00 00 00 00 00 00
       0.0 0.0 0.0 0.0
000040 00 00 80 3f 00 00 80 3f 00 00 80 3f 00 00 00 00
       1.0 1.0 1.0 0.0
000050 00 00 00 00 00 00 00 00 00 00 00 00 00 00 00 00
       0.0 0.0 0.0 0.0
000060 00 00 80 3f 00 00 80 3f 00 00 80 3f 00 00 80 3f
       1.0 1.0 1.0 1.0
000070 00 00 00 00 00 00 00 00 00 00 00 00 00 00 00 00
       0.0 0.0 0.0 0.0
000080 00 00 80 3f 00 00 80 3f 00 00 80 3f 00 00 80 3f
       1.0 1.0 1.0 1.0
000090 00 00 80 3f 00 00 00 00 00 00 00 00 00 00 00 00
       1.0 0.0 0.0 0.0
0000a0 00 00 80 3f 00 00 80 3f 00 00 80 3f 00 00 80 3f
       1.0 1.0 1.0 1.0
0000b0 00 00 80 3f 00 00 80 3f 00 00 00 00 00 00 00 00
       1.0 1.0 0.0 0.0
0000c0 00 00 80 3f 00 00 80 3f 00 00 80 3f 00 00 80 3f
       1.0 1.0 1.0 1.0
0000d0 00 00 80 3f 00 00 80 3f 00 00 80 3f 00 00 00 00
       1.0 1.0 1.0 0.0
0000e0 00 00 80 3f 00 00 80 3f 00 00 80 3f 00 00 80 3f
       1.0 1.0 1.0 1.0
0000f0 00 00 80 3f 00 00 80 3f 00 00 80 3f 00 00 80 3f
       1.0 1.0 1.0 1.0

blocks.0.cat_attn.W_K.E f4 [2, 8, 8]
000000 00 00 80 3f 00 00 00 00 00 00 00 00 00 00 00 00
       1.0 0.0 0.0 0.0
000010 00 00 00 00 00 00 00 00 00 00 00 00 00 00 00 00
       0.0 0.0 0.0 0.0
000020 00 00 00 00 00 00 80 3f 00 00 00 00 00 00 00 00
       0.0 1.0 0.0 0.0
000030 00 00 00 00 00 00 00 00 00 00 00 00 00 00 00 00
       0.0 0.0 0.0 0.0
000040 00 00 00 00 00 00 00 00 00 00 80 3f 00 00 00 00
       0.0 0.0 1.0 0.0
000050 00 00 00 00 00 00 00 00 00 00 00 00 00 00 00 00
       0.0 0.0 0.0 0.0
000060 00 00 00 00 00 00 00 00 00 00 00 00 00 00 80 3f
       0.0 0.0 0.0 1.0
000070 00 00 00 00 00 00 00 00 00 00 00 00 00 00 00 00
       0.0 0.0 0.0 0.0
000080 00 00 00 00 00 00 00 00 00 00 00 00 00 00 00 00
       0.0 0.0 0.0 0.0
000090 00 00 80 3f 00 00 00 00 00 00 00 00 00 00 00 00
       1.0 0.0 0.0 0.0
0000a0 00 00 00 00 00 00 00 00 00 00 00 00 00 00 00 00
       0.0 0.0 0.0 0.0
0000b0 00 00 00 00 00 00 80 3f 00 00 00 00 00 00 00 00
       0.0 1.0 0.0 0.0
0000c0 00 00 00 00 00 00 00 00 00 00 00 00 00 00 00 00
       0.0 0.0 0.0 0.0
0000d0 00 00 00 00 00 00 00 00 00 00 80 3f 00 00 00 00
       0.0 0.0 1.0 0.0
0000e0 00 00 00 00 00 00 00 00 00 00 00 00 00 00 00 00
       0.0 0.0 0.0 0.0
0000f0 00 00 00 00 00 00 00 00 00 00 00 00 00 00 80 3f
       0.0 0.0 0.0 1.0
000100 00 00 80 3f 00 00 00 00 00 00 00 00 00 00 00 00
       1.0 0.0 0.0 0.0
000110 00 00 00 00 00 00 00 00 00 00 00 00 00 00 00 00
       0.0 0.0 0.0 0.0
000120 00 00 00 00 00 00 80 3f 00 00 00 00 00 00 00 00
       0.0 1.0 0.0 0.0
000130 00 00 00 00 00 00 00 00 00 00 00 00 00 00 00 00
       0.0 0.0 0.0 0.0
000140 00 00 00 00 00 00 00 00 00 00 80 3f 00 00 00 00
       0.0 0.0 1.0 0.0
000150 00 00 00 00 00 00 00 00 00 00 00 00 00 00 00 00
       0.0 0.0 0.0 0.0
000160 00 00 00 00 00 00 00 00 00 00 00 00 00 00 80 3f
       0.0 0.0 0.0 1.0
000170 00 00 00 00 00 00 00 00 00 00 00 00 00 00 00 00
       0.0 0.0 0.0 0.0
000180 00 00 00 00 00 00 00 00 00 00 00 00 00 00 00 00
       0.0 0.0 0.0 0.0
000190 00 00 80 3f 00 00 00 00 00 00 00 00 00 00 00 00
       1.0 0.0 0.0 0.0
0001a0 00 00 00 00 00 00 00 00 00 00 00 00 00 00 00 00
       0.0 0.0 0.0 0.0
0001b0 00 00 00 00 00 00 80 3f 00 00 00 00 00 00 00 00
       0.0 1.0 0.0 0.0
0001c0 00 00 00 00 00 00 00 00 00 00 00 00 00 00 00 00
       0.0 0.0 0.0 0.0
0001d0 00 00 00 00 00 00 00 00 00 00 80 3f 00 00 00 00
       0.0 0.0 1.0 0.0
0001e0 00 00 00 00 00 00 00 00 00 00 00 00 00 00 00 00
       0.0 0.0 0.0 0.0
0001f0 00 00 00 00 00 00 00 00 00 00 00 00 00 00 80 3f
       0.0 0.0 0.0 1.0

blocks.0.cat_attn.W_Q.E f4 [2, 8, 8]
000000 00 00 80 3f 00 00 00 00 00 00 00 00 00 00 00 00
       1.0 0.0 0.0 0.0
000010 00 00 00 00 00 00 00 00 00 00 00 00 00 00 00 00
       0.0 0.0 0.0 0.0
000020 00 00 00 00 00 00 80 3f 00 00 00 00 00 00 00 00
       0.0 1.0 0.0 0.0
000030 00 00 00 00 00 00 00 00 00 00 00 00 00 00 00 00
       0.0 0.0 0.0 0.0
000040 00 00 00 00 00 00 00 00 00 00 80 3f 00 00 00 00
       0.0 0.0 1.0 0.0
000050 00 00 00 00 00 00 00 00 00 00 00 00 00 00 00 00
       0.0 0.0 0.0 0.0
000060 00 00 00 00 00 00 00 00 00 00 00 00 00 00 80 3f
       0.0 0.0 0.0 1.0
000070 00 00 00 00 00 00 00 00 00 00 00 00 00 00 00 00
       0.0 0.0 0.0 0.0
000080 00 00 00 00 00 00 00 00 00 00 00 00 00 00 00 00
       0.0 0.0 0.0 0.0
000090 00 00 80 3f 00 00 00 00 00 00 00 00 00 00 00 00
       1.0 0.0 0.0 0.0
0000a0 00 00 00 00 00 00 00 00 00 00 00 00 00 00 00 00
       0.0 0.0 0.0 0.0
0000b0 00 00 00 00 00 00 80 3f 00 00 00 00 00 00 00 00
       0.0 1.0 0.0 0.0
0000c0 00 00 00 00 00 00 00 00 00 00 00 00 00 00 00 00
       0.0 0.0 0.0 0.0
0000d0 00 00 00 00 00 00 00 00 00 00 80 3f 00 00 00 00
       0.0 0.0 1.0 0.0
0000e0 00 00 00 00 00 00 00 00 00 00 00 00 00 00 00 00
       0.0 0.0 0.0 0.0
0000f0 00 00 00 00 00 00 00 00 00 00 00 00 00 00 80 3f
       0.0 0.0 0.0 1.0
000100 00 00 80 3f 00 00 00 00 00 00 00 00 00 00 00 00
       1.0 0.0 0.0 0.0
000110 00 00 00 00 00 00 00 00 00 00 00 00 00 00 00 00
       0.0 0.0 0.0 0.0
000120 00 00 00 00 00 00 80 3f 00 00 00 00 00 00 00 00
       0.0 1.0 0.0 0.0
000130 00 00 00 00 00 00 00 00 00 00 00 00 00 00 00 00
       0.0 0.0 0.0 0.0
000140 00 00 00 00 00 00 00 00 00 00 80 3f 00 00 00 00
       0.0 0.0 1.0 0.0
000150 00 00 00 00 00 00 00 00 00 00 00 00 00 00 00 00
       0.0 0.0 0.0 0.0
000160 00 00 00 00 00 00 00 00 00 00 00 00 00 00 80 3f
       0.0 0.0 0.0 1.0
000170 00 00 00 00 00 00 00 00 00 00 00 00 00 00 00 00
       0.0 0.0 0.0 0.0
000180 00 00 00 00 00 00 00 00 00 00 00 00 00 00 00 00
       0.0 0.0 0.0 0.0
000190 00 00 80 3f 00 00 00 00 00 00 00 00 00 00 00 00
       1.0 0.0 0.0 0.0
0001a0 00 00 00 00 00 00 00 00 00 00 00 00 00 00 00 00
       0.0 0.0 0.0 0.0
0001b0 00 00 00 00 00 00 80 3f 00 00 00 00 00 00 00 00
       0.0 1.0 0.0 0.0
0001c0 00 00 00 00 00 00 00 00 00 00 00 00 00 00 00 00
       0.0 0.0 0.0 0.0
0001d0 00 00 00 00 00 00 00 00 00 00 80 3f 00 00 00 00
       0.0 0.0 1.0 0.0
0001e0 00 00 00 00 00 00 00 00 00 00 00 00 00 00 00 00
       0.0 0.0 0.0 0.0
0001f0 00 00 00 00 00 00 00 00 00 00 00 00 00 00 80 3f
       0.0 0.0 0.0 1.0

blocks.0.cat_attn.W_V.E f4 [2, 8, 8]
000000 00 00 80 3f 00 00 00 00 00 00 00 00 00 00 00 00
       1.0 0.0 0.0 0.0
000010 00 00 00 00 00 00 00 00 00 00 00 00 00 00 00 00
       0.0 0.0 0.0 0.0
000020 00 00 00 00 00 00 80 3f 00 00 00 00 00 00 00 00
       0.0 1.0 0.0 0.0
000030 00 00 00 00 00 00 00 00 00 00 00 00 00 00 00 00
       0.0 0.0 0.0 0.0
000040 00 00 00 00 00 00 00 00 00 00 80 3f 00 00 00 00
       0.0 0.0 1.0 0.0
000050 00 00 00 00 00 00 00 00 00 00 00 00 00 00 00 00
       0.0 0.0 0.0 0.0
000060 00 00 00 00 00 00 00 00 00 00 00 00 00 00 80 3f
       0.0 0.0 0.0 1.0
000070 00 00 00 00 00 00 00 00 00 00 00 00 00 00 00 00
       0.0 0.0 0.0 0.0
000080 00 00 00 00 00 00 00 00 00 00 00 00 00 00 00 00
       0.0 0.0 0.0 0.0
000090 00 00 80 3f 00 00 00 00 00 00 00 00 00 00 00 00
       1.0 0.0 0.0 0.0
0000a0 00 00 00 00 00 00 00 00 00 00 00 00 00 00 00 00
       0.0 0.0 0.0 0.0
0000b0 00 00 00 00 00 00 80 3f 00 00 00 00 00 00 00 00
       0.0 1.0 0.0 0.0
0000c0 00 00 00 00 00 00 00 00 00 00 00 00 00 00 00 00
       0.0 0.0 0.0 0.0
0000d0 00 00 00 00 00 00 00 00 00 00 80 3f 00 00 00 00
       0.0 0.0 1.0 0.0
0000e0 00 00 00 00 00 00 00 00 00 00 00 00 00 00 00 00
       0.0 0.0 0.0 0.0
0000f0 00 00 00 00 00 00 00 00 00 00 00 00 00 00 80 3f
       0.0 0.0 0.0 1.0
000100 00 00 80 3f 00 00 00 00 00 00 00 00 00 00 00 00
       1.0 0.0 0.0 0.0
000110 00 00 00 00 00 00 00 00 00 00 00 00 00 00 00 00
       0.0 0.0 0.0 0.0
000120 00 00 00 00 00 00 80 3f 00 00 00 00 00 00 00 00
       0.0 1.0 0.0 0.0
000130 00 00 00 00 00 00 00 00 00 00 00 00 00 00 00 00
       0.0 0.0 0.0 0.0
000140 00 00 00 00 00 00 00 00 00 00 80 3f 00 00 00 00
       0.0 0.0 1.0 0.0
000150 00 00 00 00 00 00 00 00 00 00 00 00 00 00 00 00
       0.0 0.0 0.0 0.0
000160 00 00 00 00 00 00 00 00 00 00 00 00 00 00 80 3f
       0.0 0.0 0.0 1.0
000170 00 00 00 00 00 00 00 00 00 00 00 00 00 00 00 00
       0.0 0.0 0.0 0.0
000180 00 00 00 00 00 00 00 00 00 00 00 00 00 00 00 00
       0.0 0.0 0.0 0.0
000190 00 00 80 3f 00 00 00 00 00 00 00 00 00 00 00 00
       1.0 0.0 0.0 0.0
0001a0 00 00 00 00 00 00 00 00 00 00 00 00 00 00 00 00
       0.0 0.0 0.0 0.0
0001b0 00 00 00 00 00 00 80 3f 00 00 00 00 00 00 00 00
       0.0 1.0 0.0 0.0
0001c0 00 00 00 00 00 00 00 00 00 00 00 00 00 00 00 00
       0.0 0.0 0.0 0.0
0001d0 00 00 00 00 00 00 00 00 00 00 80 3f 00 00 00 00
       0.0 0.0 1.0 0.0
0001e0 00 00 00 00 00 00 00 00 00 00 00 00 00 00 00 00
       0.0 0.0 0.0 0.0
0001f0 00 00 00 00 00 00 00 00 00 00 00 00 00 00 80 3f
       0.0 0.0 0.0 1.0

blocks.0.num_attn.mask f4 [8, 8]
000000 00 00 80 3f 00 00 00 00 00 00 00 00 00 00 00 00
       1.0 0.0 0.0 0.0
000010 00 00 00 00 00 00 00 00 00 00 00 00 00 00 00 00
       0.0 0.0 0.0 0.0
000020 00 00 80 3f 00 00 80 3f 00 00 00 00 00 00 00 00
       1.0 1.0 0.0 0.0
000030 00 00 00 00 00 00 00 00 00 00 00 00 00 00 00 00
       0.0 0.0 0.0 0.0
000040 00 00 80 3f 00 00 80 3f 00 00 80 3f 00 00 00 00
       1.0 1.0 1.0 0.0
000050 00 00 00 00 00 00 00 00 00 00 00 00 00 00 00 00
       0.0 0.0 0.0 0.0
000060 00 00 80 3f 00 00 80 3f 00 00 80 3f 00 00 80 3f
       1.0 1.0 1.0 1.0
000070 00 00 00 00 00 00 00 00 00 00 00 00 00 00 00 00
       0.0 0.0 0.0 0.0
000080 00 00 80 3f 00 00 80 3f 00 00 80 3f 00 00 80 3f
       1.0 1.0 1.0 1.0
000090 00 00 80 3f 00 00 00 00 00 00 00 00 00 00 00 00
       1.0 0.0 0.0 0.0
0000a0 00 00 80 3f 00 00 80 3f 00 00 80 3f 00 00 80 3f
       1.0 1.0 1.0 1.0
0000b0 00 00 80 3f 00 00 80 3f 00 00 00 00 00 00 00 00
       1.0 1.0 0.0 0.0
0000c0 00 00 80 3f 00 00 80 3f 00 00 80 3f 00 00 80 3f
       1.0 1.0 1.0 1.0
0000d0 00 00 80 3f 00 00 80 3f 00 00 80 3f 00 00 00 00
       1.0 1.0 1.0 0.0
0000e0 00 00 80 3f 00 00 80 3f 00 00 80 3f 00 00 80 3f
       1.0 1.0 1.0 1.0
0000f0 00 00 80 3f 00 00 80 3f 00 00 80 3f 00 00 80 3f
       1.0 1.0 1.0 1.0

blocks.0.num_attn.W_K.W f4 [4, 2]
000000 83 d9 5f c0 d2 27 8c 40 cc 68 9d 40 09 d9 c1 c0
       -3.4976509 4.379861 4.9190426 -6.0577435
000010 42 c4 a8 40 09 f4 e0 c0 0c 26 8d c0 be 3c a9 40
       5.2739573 -7.0297894 -4.4108944 5.288665

blocks.0.num_attn.W_K.E f4 [2, 8, 8]
000000 00 00 80 3f 00 00 00 00 00 00 00 00 00 00 00 00
       1.0 0.0 0.0 0.0
000010 00 00 00 00 00 00 00 00 00 00 00 00 00 00 00 00
       0.0 0.0 0.0 0.0
000020 00 00 00 00 00 00 80 3f 00 00 00 00 00 00 00 00
       0.0 1.0 0.0 0.0
000030 00 00 00 00 00 00 00 00 00 00 00 00 00 00 00 00
       0.0 0.0 0.0 0.0
000040 00 00 00 00 00 00 00 00 00 00 80 3f 00 00 00 00
       0.0 0.0 1.0 0.0
000050 00 00 00 00 00 00 00 00 00 00 00 00 00 00 00 00
       0.0 0.0 0.0 0.0
000060 00 00 00 00 00 00 00 00 00 00 00 00 00 00 80 3f
       0.0 0.0 0.0 1.0
000070 00 00 00 00 00 00 00 00 00 00 00 00 00 00 00 00
       0.0 0.0 0.0 0.0
000080 00 00 00 00 00 00 00 00 00 00 00 00 00 00 00 00
       0.0 0.0 0.0 0.0
000090 00 00 80 3f 00 00 00 00 00 00 00 00 00 00 00 00
       1.0 0.0 0.0 0.0
0000a0 00 00 00 00 00 00 00 00 00 00 00 00 00 00 00 00
       0.0 0.0 0.0 0.0
0000b0 00 00 00 00 00 00 80 3f 00 00 00 00 00 00 00 00
       0.0 1.0 0.0 0.0
0000c0 00 00 00 00 00 00 00 00 00 00 00 00 00 00 00 00
       0.0 0.0 0.0 0.0
0000d0 00 00 00 00 00 00 00 00 00 00 80 3f 00 00 00 00
       0.0 0.0 1.0 0.0
0000e0 00 00 00 00 00 00 00 00 00 00 00 00 00 00 00 00
       0.0 0.0 0.0 0.0
0000f0 00 00 00 00 00 00 00 00 00 00 00 00 00 00 80 3f
       0.0 0.0 0.0 1.0
000100 00 00 80 3f 00 00 00 00 00 00 00 00 00 00 00 00
       1.0 0.0 0.0 0.0
000110 00 00 00 00 00 00 00 00 00 00 00 00 00 00 00 00
       0.0 0.0 0.0 0.0
000120 00 00 00 00 00 00 80 3f 00 00 00 00 00 00 00 00
       0.0 1.0 0.0 0.0
000130 00 00 00 00 00 00 00 00 00 00 00 00 00 00 00 00
       0.0 0.0 0.0 0.0
000140 00 00 00 00 00 00 00 00 00 00 80 3f 00 00 00 00
       0.0 0.0 1.0 0.0
000150 00 00 00 00 00 00 00 00 00 00 00 00 00 00 00 00
       0.0 0.0 0.0 0.0
000160 00 00 00 00 00 00 00 00 00 00 00 00 00 00 80 3f
       0.0 0.0 0.0 1.0
000170 00 00 00 00 00 00 00 00 00 00 00 00 00 00 00 00
       0.0 0.0 0.0 0.0
000180 00 00 00 00 00 00 00 00 00 00 00 00 00 00 00 00
       0.0 0.0 0.0 0.0
000190 00 00 80 3f 00 00 00 00 00 00 00 00 00 00 00 00
       1.0 0.0 0.0 0.0
0001a0 00 00 00 00 00 00 00 00 00 00 00 00 00 00 00 00
       0.0 0.0 0.0 0.0
0001b0 00 00 00 00 00 00 80 3f 00 00 00 00 00 00 00 00
       0.0 1.0 0.0 0.0
0001c0 00 00 00 00 00 00 00 00 00 00 00 00 00 00 00 00
       0.0 0.0 0.0 0.0
0001d0 00 00 00 00 00 00 00 00 00 00 80 3f 00 00 00 00
       0.0 0.0 1.0 0.0
0001e0 00 00 00 00 00 00 00 00 00 00 00 00 00 00 00 00
       0.0 0.0 0.0 0.0
0001f0 00 00 00 00 00 00 00 00 00 00 00 00 00 00 80 3f
       0.0 0.0 0.0 1.0

blocks.0.num_attn.W_Q.W f4 [4, 2]
000000 7a fe 8b 40 59 64 a5 c0 24 f1 c2 40 c0 52 cc c0
       4.374814 -5.1684995 6.091936 -6.3851013
000010 f0 e1 ca 40 ef 5c c5 c0 06 fa 88 c0 d6 05 67 40
       6.3400803 -6.1675944 -4.2805204 3.6097312

blocks.0.num_attn.W_Q.E f4 [2, 8, 8]
000000 00 00 80 3f 00 00 00 00 00 00 00 00 00 00 00 00
       1.0 0.0 0.0 0.0
000010 00 00 00 00 00 00 00 00 00 00 00 00 00 00 00 00
       0.0 0.0 0.0 0.0
000020 00 00 00 00 00 00 80 3f 00 00 00 00 00 00 00 00
       0.0 1.0 0.0 0.0
000030 00 00 00 00 00 00 00 00 00 00 00 00 00 00 00 00
       0.0 0.0 0.0 0.0
000040 00 00 00 00 00 00 00 00 00 00 80 3f 00 00 00 00
       0.0 0.0 1.0 0.0
000050 00 00 00 00 00 00 00 00 00 00 00 00 00 00 00 00
       0.0 0.0 0.0 0.0
000060 00 00 00 00 00 00 00 00 00 00 00 00 00 00 80 3f
       0.0 0.0 0.0 1.0
000070 00 00 00 00 00 00 00 00 00 00 00 00 00 00 00 00
       0.0 0.0 0.0 0.0
000080 00 00 00 00 00 00 00 00 00 00 00 00 00 00 00 00
       0.0 0.0 0.0 0.0
000090 00 00 80 3f 00 00 00 00 00 00 00 00 00 00 00 00
       1.0 0.0 0.0 0.0
0000a0 00 00 00 00 00 00 00 00 00 00 00 00 00 00 00 00
       0.0 0.0 0.0 0.0
0000b0 00 00 00 00 00 00 80 3f 00 00 00 00 00 00 00 00
       0.0 1.0 0.0 0.0
0000c0 00 00 00 00 00 00 00 00 00 00 00 00 00 00 00 00
       0.0 0.0 0.0 0.0
0000d0 00 00 00 00 00 00 00 00 00 00 80 3f 00 00 00 00
       0.0 0.0 1.0 0.0
0000e0 00 00 00 00 00 00 00 00 00 00 00 00 00 00 00 00
       0.0 0.0 0.0 0.0
0000f0 00 00 00 00 00 00 00 00 00 00 00 00 00 00 80 3f
       0.0 0.0 0.0 1.0
000100 00 00 80 3f 00 00 00 00 00 00 00 00 00 00 00 00
       1.0 0.0 0.0 0.0
000110 00 00 00 00 00 00 00 00 00 00 00 00 00 00 00 00
       0.0 0.0 0.0 0.0
000120 00 00 00 00 00 00 80 3f 00 00 00 00 00 00 00 00
       0.0 1.0 0.0 0.0
000130 00 00 00 00 00 00 00 00 00 00 00 00 00 00 00 00
       0.0 0.0 0.0 0.0
000140 00 00 00 00 00 00 00 00 00 00 80 3f 00 00 00 00
       0.0 0.0 1.0 0.0
000150 00 00 00 00 00 00 00 00 00 00 00 00 00 00 00 00
       0.0 0.0 0.0 0.0
000160 00 00 00 00 00 00 00 00 00 00 00 00 00 00 80 3f
       0.0 0.0 0.0 1.0
000170 00 00 00 00 00 00 00 00 00 00 00 00 00 00 00 00
       0.0 0.0 0.0 0.0
000180 00 00 00 00 00 00 00 00 00 00 00 00 00 00 00 00
       0.0 0.0 0.0 0.0
000190 00 00 80 3f 00 00 00 00 00 00 00 00 00 00 00 00
       1.0 0.0 0.0 0.0
0001a0 00 00 00 00 00 00 00 00 00 00 00 00 00 00 00 00
       0.0 0.0 0.0 0.0
0001b0 00 00 00 00 00 00 80 3f 00 00 00 00 00 00 00 00
       0.0 1.0 0.0 0.0
0001c0 00 00 00 00 00 00 00 00 00 00 00 00 00 00 00 00
       0.0 0.0 0.0 0.0
0001d0 00 00 00 00 00 00 00 00 00 00 80 3f 00 00 00 00
       0.0 0.0 1.0 0.0
0001e0 00 00 00 00 00 00 00 00 00 00 00 00 00 00 00 00
       0.0 0.0 0.0 0.0
0001f0 00 00 00 00 00 00 00 00 00 00 00 00 00 00 80 3f
       0.0 0.0 0.0 1.0

blocks.0.num_attn.W_pred.W f4 [4, 8, 8]
000000 fa a3 0a bf 67 20 3f be 50 a2 63 3e e2 8c f0 bd
       -0.5415646 -0.18664704 0.22229886 -0.11745621
000010 49 bf 62 3f 03 4b b8 be 1a 3d 50 3d ad c4 36 40
       0.8857313 -0.3599473 0.05083952 2.8557541
000020 b2 be e7 bf 9c 4a 91 c0 e4 e9 0a 41 3d b8 a4 40
       -1.810507 -4.5403576 8.682102 5.14749
000030 d2 12 74 3e 59 d3 86 3f 15 fd 46 be 7a ed df bf
       0.23835304 1.0533248 -0.1943248 -1.7494347
000040 5b ec ec bf f1 62 14 41 54 29 62 c0 01 8f 9a 40
       -1.850963 9.274156 -3.5337725 4.8299565
000050 74 ea c9 3f 0d cd fa 3f fa a6 fd 3d 78 27 41 c0
       1.5774674 1.9593827 0.12385364 -3.018034
000060 a7 0d f7 bf 44 02 d0 40 71 38 17 41 8b cc 68 c0
       -1.9301041 6.5002766 9.45128 -3.6374843
000070 d7 ae 47 40 83 43 57 bf d8 d4 27 3f d0 f8 96 bf
       3.1200464 -0.8408739 0.6555915 -1.1794682
000080 c0 72 13 c0 17 38 16 41 f9 47 d2 40 a1 2e 5b 3f
       -2.3038788 9.388694 6.5712857 0.85618025
000090 d6 f3 a1 c0 67 c1 2b 3e 63 55 80 bf bf be c1 bf
       -5.061015 0.16772996 -1.0026058 -1.5136336
0000a0 4f bf 12 c0 2f a0 48 41 45 d5 db 40 23 9e 4f 40
       -2.2929265 12.539107 6.869784 3.244027
0000b0 4e b9 38 3e 3e 8a 9a c0 4f cc 01 c0 e0 2c d6 bf
       0.18039438 -4.8293753 -2.028095 -1.6732445
0000c0 2f 44 29 c0 cb 18 03 41 08 e2 88 40 7c b4 a0 3e
       -2.6447866 8.193553 4.2775917 0.313877
0000d0 69 eb 8c 3e 05 81 3f c0 c6 5e 9c c0 cf bc b5 bf
       0.27523354 -2.9922497 -4.886569 -1.4198245
0000e0 ca c6 38 bf 2a 0c 9c bf 5b 8d 7b bf 87 4d 0a 3e
       -0.7217833 -1.2191212 -0.98262566 0.13506137
0000f0 fd 31 5f bf 94 30 49 3c 42 7e 50 40 5f 48 af 3f
       -0.8718565 0.012279648 3.2577062 1.3693961
000100 f5 f0 41 40 fa 03 b0 bf 84 12 a1 bf 3c 60 04 c0
       3.0303319 -1.3751214 -1.2583776 -2.0683737
000110 04 9e 8d bf fb 0a f3 bf 21 76 15 c0 74 23 12 c0
       -1.1063848 -1.8987726 -2.335335 -2.283414
000120 1d 0d 88 c0 b8 c7 03 41 f0 25 cb c0 09 db bc c0
       -4.2516007 8.236259 -6.348381 -5.9017377
000130 b0 c9 c4 c0 69 0d a7 c0 9c db 95 c0 d6 fc b8 c0
       -6.14962 -5.220387 -4.683058 -5.780864
000140 05 18 93 c0 1c a8 da c0 e1 f6 f0 40 55 f2 c4 c0
       -4.596682 -6.833021 7.5301366 -6.1545815
000150 ac 49 c1 c0 4d 10 a6 c0 6d 4f bb c0 a5 56 97 c0
       -6.040243 -5.18949 -5.8534455 -4.7293267
000160 52 60 98 c0 94 a0 b3 c0 98 9c ae c0 4b 23 dd 40
       -4.761758 -5.613352 -5.4566154 6.910558
000170 24 6b af c0 13 f7 a7 c0 8f 2c 8e c0 84 51 93 c0
       -5.4818287 -5.2489104 -4.4429393 -4.6037006
000180 07 64 8f c0 5e c0 c9 c0 d4 09 b4 c0 db fd c0 c0
       -4.4809604 -6.3047323 -5.6261997 -6.030988
000190 53 b7 f7 40 bb 9c c1 c0 a9 f9 84 c0 90 0f 91 c0
       7.7411284 -6.050382 -4.155476 -4.5331497
0001a0 1e 59 6e c0 0f fe c5 c0 4d b6 d5 c0 c1 45 d4 c0
       -3.7241893 -6.187263 -6.6785035 -6.633515
0001b0 ae 84 cc c0 65 44 df 40 c7 a4 ae c0 98 33 91 c0
       -6.3911963 6.977099 -5.4576144 -4.537548
0001c0 66 af 86 c0 eb f1 c2 c0 8e 02 c5 c0 3d ac bc c0
       -4.208911 -6.092031 -6.156562 -5.896025
0001d0 14 d3 c9 c0 c4 4c c5 c0 97 e9 ef 40 7b 8f ae c0
       -6.3070164 -6.165621 7.4972644 -5.4550147
0001e0 68 cf 19 40 f7 21 5f 3f 14 88 24 bf 56 7f 88 bf
       2.403284 0.871612 -0.6427014 -1.066386
0001f0 16 f2 a6 bf 7c f1 0c c0 52 73 9d bf b8 a0 39 bf
       -1.3042629 -2.202239 -1.2300818 -0.7251086
000200 da d2 50 40 3f 7a f3 be f2 c2 62 bf 16 bc 1d c0
       3.2628694 -0.47554204 -0.8857871 -2.4646049
000210 a3 33 35 be 5b 07 a9 bf f7 b1 1e c0 44 23 11 c0
       -0.17695479 -1.320537 -2.479612 -2.2677774
000220 38 93 76 c0 a7 c0 e7 40 db f1 9a c0 da 63 c0 c0
       -3.8527355 7.242267 -4.8420234 -6.012189
000230 ae c3 aa c0 c6 24 ae c0 25 8e a9 c0 30 02 b7 c0
       -5.3363867 -5.441989 -5.2986016 -5.719017
000240 d1 08 8e c0 76 73 c0 c0 1f 52 e4 40 3b 2a c7 c0
       -4.438576 -6.0140944 7.1350245 -6.223905
000250 29 df be c0 5a e0 b0 c0 d1 c0 bb c0 37 f1 b3 c0
       -5.964741 -5.5273867 -5.867287 -5.623195
000260 0f 28 86 c0 dc 5f c8 c0 32 b4 a2 c0 5b 28 d9 40
       -4.19239 -6.2617016 -5.0844965 6.786176
000270 da c3 b5 c0 88 be a6 c0 76 bb d1 c0 67 1e b4 c0
       -5.6801577 -5.210758 -6.5541334 -5.628711
000280 c8 fa 72 c0 0e 56 b0 c0 69 0b c7 c0 92 e6 be c0
       -3.7965565 -5.5105047 -6.220143 -5.965646
000290 9b ec f9 40 be 09 a7 c0 b2 89 ad c0 a6 ca 8f c0
       7.8101325 -5.219939 -5.4230585 -4.4934874
0002a0 ba 62 84 c0 28 35 c6 c0 f1 5f c6 c0 8a 41 c1 c0
       -4.1370516 -6.193989 -6.1992116 -6.0392504
0002b0 42 69 bd c0 b4 30 df 40 cd b1 bf c0 66 1b bf c0
       -5.919099 6.974695 -5.990454 -5.9720945
0002c0 0c e0 5a c0 f7 46 bf c0 4e 35 c9 c0 78 5e c6 c0
       -3.4199247 -5.9774127 -6.287757 -6.199032
0002d0 d3 55 c1 c0 79 d7 bd c0 bb c6 e8 40 77 ec b3 c0
       -6.0417266 -5.932553 7.274259 -5.6226153
0002e0 c3 a0 30 40 b7 09 49 3f e5 b7 98 3d f4 ba 85 bf
       2.759812 0.7853045 0.0745695 -1.0447679
0002f0 33 89 a8 bf eb 84 fc bf 55 70 9a bf 4e 83 81 bf
       -1.316687 -1.9728063 -1.2065531 -1.0118196
000300 02 dd 5b 3e a6 10 96 3e 10 24 b9 3e 9d 98 69 bf
       0.21471027 0.29309577 0.36160326 -0.91248494
000310 36 1e 48 bd 00 e1 22 bd f5 2b ef be e7 b6 d9 bc
       -0.048856936 -0.039765358 -0.46713224 -0.026576472
000320 e9 01 16 41 4d 37 23 bf 10 97 21 3f 55 59 f3 3f
       9.375466 -0.6375626 0.6312113 1.9011637
000330 1c 9d 1d bf 17 79 36 c0 df bd 6a c0 27 2f 82 c0
       -0.61567855 -2.8511407 -3.6678388 -4.068256
000340 00 94 99 3f 22 1f 1f 41 71 f7 03 40 b9 30 7f 3e
       1.1998291 9.945101 2.0619776 0.2492093
000350 ce 31 41 bf 77 7c 48 c0 85 38 76 c0 3e d3 72 c0
       -0.7546662 -3.1325967 -3.8471997 -3.7941432
000360 75 af c7 3f 41 e5 ff 40 28 c5 75 40 86 40 c9 be
       1.560042 7.996735 3.8401585 -0.3930704
000370 4b bd 38 3f 31 bb 43 c0 aa c3 6b c0 da 5f 4c c0
       0.7216384 -3.0583003 -3.6838174 -3.1933503
000380 8f 1a 8d 3f b6 e6 a9 3f 1c 2a c6 40 ca a9 4e 40
       1.102373 1.3273532 6.1926403 3.229113
000390 82 1f 56 3f a7 c0 49 c0 18 45 8d c0 ef 0d 91 c0
       0.8364183 -3.1523836 -4.4146843 -4.532951
0003a0 92 57 0a 3f 1c e5 09 41 b4 74 fc 3f 92 bb 55 bf
       0.5403987 8.618435 1.9723115 -0.83489335
0003b0 2b 0f 2d 3f 6a ec b7 bf 39 e1 23 c0 fc 2a 29 c0
       0.6760127 -1.4369023 -2.5606215 -2.6432486
0003c0 f3 30 0a 3f 60 f4 96 3f b5 44 e6 40 51 67 07 40
       0.5398094 1.1793327 7.195887 2.115681
0003d0 22 af 2c be 96 c6 ec bf 85 46 0b c0 e3 22 6f c0
       -0.16863683 -1.8498104 -2.1761792 -3.7365043
0003e0 a0 24 23 bf 16 fb fb bc 55 4f bb 3f 18 09 bd bf
       -0.6372776 -0.030759376 1.4633585 -1.47684
0003f0 da 5d db bf 05 eb aa bf de 35 85 40 9c 6c 5a bf
       -1.7138016 -1.3352972 4.1628256 -0.85321975

blocks.0.num_attn.W_V.W f4 [4, 1]
000000 ff c4 8d 3f 50 65 28 3f 1b 59 2d bd 2a 84 ea 3e
       1.1075743 0.6577959 -0.042321306 0.45803958

blocks.0.num_mlp.mlps.0.W_in f4 [64, 2]
000000 c0 4e b9 be d6 53 8a be 91 f0 58 3d fd 84 11 be
       -0.36192894 -0.27017087 0.052963797 -0.14210887
000010 fb 54 84 bc c0 9e df bb d0 3d b2 be 05 84 82 be
       -0.016153803 -0.0068243444 -0.34812784 -0.25491348
000020 35 a1 9b bd 67 97 39 bd 2b ec 40 be 13 3a 82 bd
       -0.07599107 -0.045310404 -0.18840091 -0.06358733
000030 54 44 e9 be 10 0f 0f be 87 23 8a be d7 97 6f be
       -0.45559943 -0.1397059 -0.2698023 -0.23397766
000040 70 7b b0 be 6c 15 d5 bd 82 9d 38 3f fc 78 32 3f
       -0.34469175 -0.104044765 0.7211534 0.6971586
000050 10 f1 2c 3f 2e f1 8a 3f 2b b4 a1 be ba d6 86 be
       0.6755533 1.0854852 -0.3158277 -0.26335698
000060 ca 5b 52 3f 39 4f 3a 3f 24 0d 1e bd 78 e2 41 be
       0.8217131 0.72777134 -0.03858675 -0.18934047
000070 a8 ba 69 bd 82 52 ec be d1 5d 96 be 3c 68 84 be
       -0.057062775 -0.46156698 -0.2936845 -0.25860775
000080 67 b0 1e bd 1a a1 e5 bb 87 78 84 3d cd 51 4c be
       -0.03874245 -0.00700773 0.06468301 -0.1995308
000090 40 b6 f7 3e a2 e8 1a 3f 56 7b 2c 3f 5d 9c 31 3f
       0.48381233 0.6051122 0.67375696 0.69379216
0000a0 ea c3 8e 3d ff e2 37 be b3 23 b9 3d 00 3d 2f be
       0.069709614 -0.17957686 0.09040012 -0.17113113
0000b0 4a f6 23 3f 63 7b 09 3f 4f 29 f3 3e c3 f0 82 3e
       0.6404768 0.537039 0.47492453 0.25574312
0000c0 b7 0d 35 3f 80 2f 0a 3f 73 9c 71 3f b8 32 2e 3f
       0.7072405 0.5397873 0.9437935 0.6804614
0000d0 e7 a6 01 3e 4b 78 31 3e 42 98 0e 3f a8 4c 30 3f
       0.12661324 0.17331044 0.55701077 0.6886697
0000e0 0f df 52 3f 7d 73 81 3f ef 11 07 3f 60 67 09 3f
       0.8237161 1.0113369 0.5276174 0.5367336
0000f0 cb 58 1f bd 77 df 8f bd 59 8c 77 bd 96 d4 22 be
       -0.03890304 -0.070250444 -0.06043658 -0.15901408
000100 d2 c9 0b be 73 34 fa bb c0 12 3f be 24 d8 61 be
       -0.13651207 -0.007635647 -0.18659496 -0.22055107
000110 5d e9 86 be 6f 6c 4d be a8 8d 7a be ee bb 8c be
       -0.26349917 -0.20060895 -0.244681 -0.2748713
000120 c2 4d 59 3f 33 71 e9 3e 4a dd cb be 4d 59 ff bd
       0.84884274 0.45594177 -0.39817268 -0.12468205
000130 a5 97 ba 3e 3e e8 32 3f 2a cb 72 3f 4a 75 1d 3f
       0.3644382 0.69885623 0.94841254 0.61507094
000140 9d 53 03 3f 35 a1 2e 3f 58 ba 94 be ec 71 39 be
       0.5129946 0.6821473 -0.2904842 -0.18109864
000150 7e b4 c3 bd ea 9e f6 3c 82 6b aa 3c 0d d6 8e be
       -0.095559105 0.030105073 0.020803217 -0.27897683
000160 4f 86 71 be a7 27 be 3d 87 5a 3d bc c0 27 37 be
       -0.23586391 0.09284907 -0.011557228 -0.17886257
000170 be 5d b7 bd 4a ac e7 be f5 72 57 be bd 67 20 be
       -0.08953427 -0.45248634 -0.21039946 -0.15664573
000180 92 72 8f be 35 ec 5f 3d 32 2c 8e bd e5 55 ed bb
       -0.28017098 0.054668624 -0.06942023 -0.0072429054
000190 98 7f ec 3e 9c 49 16 3f 75 ae d3 3e 74 7d 44 3f
       0.46191096 0.5870607 0.41344038 0.76753926
0001a0 2f 19 b2 be 98 b2 22 be 9c bd 38 bc c1 dc e5 bd
       -0.3478484 -0.1588844 -0.011275675 -0.11223746
0001b0 80 a6 f3 bd d6 04 0b 3d 41 56 26 3f cc 4d 4b 3f
       -0.11896992 0.03394016 0.64975363 0.79415584
0001c0 96 d3 05 3e 00 35 b1 3e 73 32 d0 be d4 b9 61 be
       0.13068995 0.34610748 -0.4066349 -0.22043544
0001d0 3f 77 23 3f e1 fc 01 3f d6 c9 b8 be 57 62 79 be
       0.6385383 0.5077649 -0.3609149 -0.2435392
0001e0 de 0f bb be 59 35 30 be 58 53 9c bd b3 02 3e 3d
       -0.36535543 -0.1720785 -0.07633084 0.046389293
0001f0 82 18 88 be ba b7 92 be cf dc 2d 3d 18 2d c3 bd
       -0.26581198 -0.28655797 0.042446908 -0.09530085

blocks.0.num_mlp.mlps.0.b_in f4 [64]
000000 f0 33 d3 be c8 f6 95 b9 00 00 00 00 d0 a0 cb be
       -0.41250563 -0.0002860336 0.0 -0.39771128
000010 00 00 00 00 00 00 00 00 9e bd 99 be 89 bd 99 be
       0.0 0.0 -0.3002748 -0.30027416
000020 00 00 00 00 a6 3b 2a 3f f5 a6 1e 3f 9b bd 99 be
       0.0 0.66497266 0.61973506 -0.3002747
000030 33 9d 11 3f 00 00 00 00 42 bd 99 be 00 00 00 00
       0.5688049 0.0 -0.30027205 0.0
000040 00 00 00 00 0e a7 3c b7 e0 68 d7 3e c1 41 13 3f
       0.0 -1.1244569e-05 0.420722 0.5752221
000050 ee a4 17 ba 0b d7 db 39 7f c1 06 3f d0 a9 dd 3e
       -0.00057847693 0.00041931155 0.52639 0.4329362
000060 97 4b 14 3f ad 60 30 3f 15 4d 8d bc 28 e4 09 3f
       0.5792784 0.68897516 -0.01724867 0.53863764
000070 a2 99 23 3f 1c 46 ff 3e 00 00 00 00 00 00 00 00
       0.639063 0.49858177 0.0 0.0
000080 00 00 00 00 00 00 00 00 98 bd 99 be ba a5 ca be
       0.0 0.0 -0.3002746 -0.39579564
000090 6e 33 18 3f f1 b9 ea be 3a a7 1c 3e eb 77 59 3f
       0.59453475 -0.45844987 0.15298167 0.84948605
0000a0 bc 23 23 3f 6b 96 be be 1d 9f 8b 30 f9 07 bb b0
       0.637264 -0.37224135 1.0158804e-09 -1.3608307e-09
0000b0 75 a8 95 b1 00 00 00 00 a0 bd 99 be af db 9b be
       -4.355622e-09 0.0 -0.30027485 -0.30441043
0000c0 8c d7 05 b1 00 00 00 00 93 ce f9 3e 94 84 15 3f
       -1.9476571e-09 0.0 0.48790416 0.58405423
0000d0 7d bd 99 be 00 00 00 00 7f d7 8f 31 78 46 19 3f
       -0.3002738 0.0 4.186347e-09 0.5987315
0000e0 b4 5b 58 3e 65 83 cd be 87 74 bc 3e 07 ba 99 be
       0.21128732 -0.4013931 0.36807653 -0.3002474
0000f0 67 bd 99 be 12 eb 2c bc fb bc 99 be 7f 4b 0a bb
       -0.30027315 -0.010554092 -0.30026993 -0.0021102128

blocks.0.num_mlp.mlps.0.W_out f4 [8, 64]
000000 06 b7 85 be 3d e6 52 3c 48 5d 13 3e 36 3f ce 3d
       -0.26116198 0.012872276 0.14391053 0.1007065
000010 dc 0f d9 be 49 ca 14 bc 2d ea ac 3e 64 c3 2c bf
       -0.42394912 -0.009081432 0.33772412 -0.6748564
000020 69 96 cb ba 97 7c a6 bf 20 a4 83 be ea 9c 0d bf
       -0.0015532497 -1.3006772 -0.25711155 -0.55317557
000030 30 01 17 bf c6 1b e5 bd 90 fb 20 3e bc 84 f3 3e
       -0.58986187 -0.11186938 0.15720963 0.47562206
000040 bb b4 14 3d 14 de 2e be 4f e6 1d bf fe 25 b6 be
       0.03630517 -0.17076904 -0.6167955 -0.3557586
000050 9e 2c f8 3d db 38 11 bf 21 31 39 bf 58 0e 2e bd
       0.12117885 -0.5672738 -0.7234059 -0.042494148
000060 cc df fa be 79 8b 8c be 98 c4 5c bf e4 53 08 bf
       -0.48998868 -0.2745016 -0.8623748 -0.53253007
000070 94 e8 82 bf 07 38 99 be b0 a7 d1 be 3f 26 4f 3c
       -1.0227227 -0.29925558 -0.40948248 0.012643396
000080 53 c1 05 be 72 84 dc 3e b6 19 57 be 86 bd 94 be
       -0.13062029 0.43069798 -0.21005902 -0.29050845
000090 1f 1c 38 bf a8 08 1b bf 69 2c 22 bf 22 54 3f bf
       -0.7191791 -0.60560083 -0.63349015 -0.7473775
0000a0 90 04 e7 be 95 33 44 bf 67 a6 6b be 42 98 12 bf
       -0.45120668 -0.7664121 -0.23012696 -0.57263577
0000b0 b9 bb a4 bc fe f5 63 3e 26 32 51 be 86 64 1e bf
       -0.020109044 0.22261807 -0.20429286 -0.61872137
0000c0 5f 3b 12 3f 9d e7 f7 3d e2 8d 03 bf 96 fb d0 be
       0.57121843 0.121047236 -0.5138837 -0.40816945
0000d0 24 8d 2f be 75 43 ff 3c 81 93 ec be a6 33 46 bf
       -0.17143685 0.031160096 -0.46206287 -0.7742256
0000e0 f4 9f be be 56 14 fb be 20 62 a8 bf 6d f5 0d bf
       -0.3723141 -0.49038953 -1.3154945 -0.55452615
0000f0 aa 32 bc be 49 ba 81 3e ed ef 80 bf ec 18 5a bf
       -0.36757404 0.25337437 -1.007322 -0.8519428
000100 d9 9a 9a 3e 8c 23 01 bf cb 03 a8 3d a2 18 99 be
       0.30196264 -0.50444865 0.082038485 -0.29901606
000110 12 b3 45 be 1b 26 64 be e1 fd 9a 3d 2e 15 25 3f
       -0.19306591 -0.22280161 0.07567955 0.6448544
000120 21 97 a8 3e 47 d3 a2 3d 12 a6 c5 3b 5a 03 ff 3e
       0.32927802 0.07950454 0.00603176 0.49807245
000130 d0 4c 6d 3d 43 da 57 3e 50 3d 11 be e2 5f cf 3e
       0.057934582 0.21079354 -0.14183545 0.4050284
000140 60 25 30 3e 12 73 61 3e 8b 2f 76 3f 54 81 e6 bc
       0.17201757 0.22016552 0.96166295 -0.02813784
000150 c5 13 94 be 97 6f 02 3e 7a 2c 9e be ab a1 62 bf
       -0.28921333 0.1273788 -0.30893308 -0.88527936
000160 0e 97 dd 3e 2e d5 dd 3e 5f b2 71 3f a5 1f 9c 3e
       0.43279308 0.43326706 0.944128 0.30492893
000170 d7 b5 1c 3f 15 39 ed 3e e1 9c 99 3f 61 0a 17 bf
       0.61214966 0.46332613 1.2001001 -0.5900021
000180 e4 4e d6 bd a6 40 f8 3e 84 02 25 3f 7b c9 19 3f
       -0.10464266 0.48486823 0.64456964 0.6007306
000190 58 b6 36 3f 9c c3 2d 3f 02 00 38 3e 85 6f b2 bf
       0.71371984 0.678766 0.17968753 -1.3940283
0001a0 be 27 ca 3e 29 22 9a 3e 9a fc 64 3d ad ca 10 3d
       0.39483446 0.30104187 0.055904962 0.035349537
0001b0 7b 66 ac bc 55 17 36 3f 1e 85 39 3e 06 91 e1 3e
       -0.02104496 0.7112935 0.18117186 0.44055957
0001c0 50 c5 21 3e 31 9b b0 3e 95 28 5e be 46 a8 00 be
       0.15797925 0.34493402 -0.21695168 -0.12564191
0001d0 22 ac b0 3e 3b 84 00 3b 49 ca 8f 3e 99 ac e6 3e
       0.34506327 0.0019610066 0.2808402 0.45053557
0001e0 13 b3 15 3f 7c 1a 7d 3e 3d ca 3f 3f d3 3b 00 3f
       0.5847637 0.24717134 0.74917966 0.50091285
0001f0 9c 2d 87 3e 7f 20 75 be 90 c5 1e 3e d0 7e 12 bf
       0.26401985 -0.23938178 0.15505052 -0.5722475
000200 71 b1 fc 3d d4 75 3c 3e 15 42 c1 3e 5f e7 66 be
       0.12338532 0.18404323 0.3774573 -0.22549199
000210 dd 15 9e be 6e 7a c5 3a 06 0e 14 be ec 4b aa bd
       -0.30876055 0.0015066394 -0.14458475 -0.08315262
000220 23 a2 82 3e ee 99 56 3e d7 70 c4 3e a4 3b 82 be
       0.25514325 0.20957157 0.3836734 -0.25436127
000230 b4 b5 b0 3e f8 eb c4 3d af ae e0 bc ea 5c 77 bf
       0.34513628 0.0961532 -0.027427046 -0.9662615
000240 a3 2f 30 3f 7a 5e 38 3f 5d 7c 16 3f a6 9c ac 3e
       0.6882269 0.7201916 0.58783513 0.33713263
000250 3f a1 c8 3d b0 a6 b1 be 49 9b df 3e f2 40 cb 3e
       0.0979638 -0.34697485 0.4367316 0.39697987
000260 5f 19 ed 3e 0f 9e f6 3c 49 a6 aa bd fa 0d 2c 3e
       0.4630842 0.030104665 -0.083324976 0.16802207
000270 b6 33 87 3e 42 74 75 3f ba 5e f0 3e 23 0e bf bd
       0.2640664 0.9588052 0.4694727 -0.09328868
000280 e7 87 80 3e 00 19 54 bd 3c 7e 14 3d 1a bb 1e 3f
       0.25103685 -0.051781654 0.0362532 0.62004244
000290 bd 23 29 3e 25 45 c1 3d 3b db 2b 3f 2c da 84 bf
       0.1651754 0.094370164 0.67131394 -1.0379081
0002a0 a0 7a 5e bd cd 71 23 3f bf a6 09 bf 50 db e3 bd
       -0.054316163 0.6384552 -0.5377006 -0.11125815
0002b0 a4 7b 8a be e2 f4 2b be e1 28 00 3e 10 16 91 3e
       -0.27047455 -0.16792634 0.12515594 0.28337145
0002c0 c3 b3 89 3e 25 89 6e bf a0 55 a7 3e ac 87 b8 3d
       0.2689496 -0.93178016 0.32682514 0.09010252
0002d0 98 10 f3 3d 57 58 4c be 0d 3e a6 be eb 04 05 bd
       0.118683994 -0.19955574 -0.32469216 -0.032475393
0002e0 63 f9 4f 3e 43 36 01 3f dc 25 12 be ee e7 7b 3e
       0.20309977 0.5047342 -0.14272255 0.24600193
0002f0 28 6e b0 3c bf b5 75 bd 69 f6 ef be b7 5f 82 3e
       0.021536902 -0.05998778 -0.46867684 0.2546365
000300 0d 07 45 be 50 cd b8 3d 87 2b 3c 3d 2a 4d 1a 3e
       -0.19240971 0.09023535 0.04593995 0.15068498
000310 59 c6 43 3e 4c 92 ab be df 26 6a be 1d 3a d9 be
       0.19118632 -0.33510053 -0.2286639 -0.4242715
000320 46 e2 88 3e 22 5d 10 bf da fb a5 be 2e ed 18 bf
       0.26735133 -0.5639211 -0.3241871 -0.5973691
000330 1a 9b b7 be 70 ac a1 3e d3 79 50 bf 93 f5 d6 3e
       -0.3586052 0.31576872 -0.8143589 0.41984233
000340 d9 87 0f bf 5f bd 23 be 65 eb da be 4d 44 9d be
       -0.5606666 -0.15990208 -0.42757717 -0.30716172
000350 a4 8a e1 be b7 f7 61 3f 1e a3 4b bf e0 15 b5 3c
       -0.44051087 0.8826861 -0.7954577 0.022105157
000360 84 85 92 3c 43 86 c9 be 9b 30 f6 be 81 4a b1 be
       0.01788593 -0.39360246 -0.48083958 -0.34627154
000370 ba 23 28 bf 87 0c 38 bf 0d ca eb 3d 8a 3e b0 be
       -0.65679514 -0.71894115 0.115131475 -0.34422714
000380 dd e2 94 be 22 c6 41 bf 2a b7 87 be 7e 32 1b bf
       -0.29079333 -0.7569295 -0.2650693 -0.6062392
000390 30 e0 51 be 4f 0f 35 be 6f ea 80 bf 20 bd 3e bf
       -0.20495677 -0.17681621 -1.0071543 -0.7450733
0003a0 56 05 cb be ae d1 86 be 83 c2 5b bd a9 bc 8f 3e
       -0.39652508 -0.26331848 -0.053652298 0.28073624
0003b0 a0 0c 0d be b1 45 e7 3e 2f 40 f2 bd ab 94 68 be
       -0.13774347 0.45170358 -0.11828648 -0.22712962
0003c0 bf f2 7c 3e c9 6e 2b 3f 3a ca 66 bf bc 52 d1 be
       0.24701975 0.6696592 -0.90152323 -0.40883434
0003d0 be 00 43 3d e2 51 b4 3e fa 06 d3 be e1 e4 39 bf
       0.04760813 0.35218722 -0.4121626 -0.72614866
0003e0 e4 3b 88 bf a4 25 dc be 40 2c 1b bf 0a 9e 83 be
       -1.0643277 -0.42997468 -0.60614395 -0.25706512
0003f0 82 d7 45 bf 74 46 be 3e c3 cf 29 bf 41 2b d0 bd
       -0.77281964 0.37163126 -0.66332644 -0.101645

blocks.0.num_mlp.mlps.0.b_out f4 [8]
000000 fc 3c 03 bf 68 f4 9b 3e 2c 33 c5 3e 3a 9a f0 be
       -0.5126493 0.30459905 0.38515604 -0.46992666
000010 4f 92 bd 3e a1 cd dc be d0 ad 30 3f 00 a6 03 bf
       0.37025687 -0.43125632 0.69015217 -0.5142517

blocks.0.num_mlp.mlps.0.W_read.W f4 [2, 5]
000000 03 36 5e 3f 90 64 c1 bf 98 14 90 3d 94 5d 85 be
       0.86801165 -1.5108814 0.07035178 -0.26047957
000010 f3 ca e4 be 4a 40 3e 3e cd 72 ac bf d1 2c 97 bf
       -0.44686088 0.18579212 -1.3472534 -1.1810552
000020 a9 e3 90 bf 73 36 c6 be
       -1.1319476 -0.38713416

blocks.0.num_mlp.mlps.0.W_read.E f4 [5, 1, 1]
000000 00 00 80 3f 00 00 80 3f 00 00 80 3f 00 00 80 3f
       1.0 1.0 1.0 1.0
000010 00 00 80 3f
       1.0

blocks.0.num_mlp.mlps.1.W_in f4 [64, 2]
000000 e4 7c f7 be 2d 29 21 be e5 ee cf 3b 6b ef 53 be
       -0.4833747 -0.15738364 0.006345617 -0.206968
000010 2d 48 6c bd a9 f6 9b 3b 69 7a 29 be 1d 09 8e 3d
       -0.05768602 0.004759629 -0.16550602 0.06935332
000020 0b 91 6c 3f bd cb a6 3f d3 8a 96 be 88 9b 79 be
       0.9240882 1.3030926 -0.2940279 -0.24375737
000030 1a d3 5b 3f d6 8d 51 3f 4c 3f 3c bd 61 2a 6a bd
       0.8586899 0.8185705 -0.045958802 -0.057169322
000040 f4 5b ac bf 32 81 86 bf c6 5d cd bf 38 f3 9d bf
       -1.3465562 -1.0508177 -1.6044242 -1.233985
000050 26 0e 06 be a6 84 e6 3c 3e 97 37 be 4f 26 4b be
       -0.13091335 0.028139424 -0.17928788 -0.19838832
000060 fc 11 83 be ad 2c 69 be d4 60 97 be 88 bb 63 be
       -0.25599658 -0.22770949 -0.29566061 -0.22239506
000070 0f 91 2f be af f9 c5 be f6 a9 88 3f 01 9c 90 3f
       -0.17145179 -0.38667056 1.0676868 1.1297609
000080 a5 1b 34 be 81 32 cd be f9 ef 25 3d 62 a7 d1 bd
       -0.1758867 -0.40077594 0.04051206 -0.10237004
000090 74 8b 82 be 2c 86 8b be 0f d2 cd 3f 15 43 cc 3f
       -0.2549702 -0.27250803 1.607973 1.5957972
0000a0 9e 38 b5 bf 60 5b ab bf b0 f2 0e be 59 35 dc be
       -1.4157903 -1.338726 -0.13959765 -0.4300945
0000b0 aa 25 51 be cc 94 89 3d 10 93 0a 3e a1 f0 5a be
       -0.20424524 0.06717834 0.13532662 -0.21380855
0000c0 37 c3 0a be e9 d3 83 bc 15 5b ae bd ac aa 27 be
       -0.13551031 -0.016092258 -0.08513466 -0.163737
0000d0 68 07 a9 3d 7a be 34 be d7 55 98 bf bc 37 b3 bf
       0.08253366 -0.17650786 -1.1901196 -1.4001384
0000e0 61 63 e9 3f 92 4c f4 3f e1 76 5f 3c be ce d7 bd
       1.8233453 1.9085867 0.013639183 -0.1053748
0000f0 1c f9 cb 3f 03 f9 e1 3f 6f f0 f8 bd 27 12 d4 be
       1.5935397 1.7654117 -0.12155234 -0.414201
000100 f6 e5 33 be 5a 3e 07 be a0 a7 cc bd 30 af 80 bc
       -0.17568192 -0.13207379 -0.099929094 -0.015708536
000110 2d 76 9b be e1 4b 8f be d1 98 55 bf 80 68 9d bf
       -0.30363598 -0.2798758 -0.83436304 -1.2297516
000120 eb fd 14 3c 2b b8 92 be 6c 81 8a be 04 30 81 be
       0.009093742 -0.28656134 -0.27051866 -0.25231946
000130 df 87 3f be 80 83 fb bd e4 7b 57 be 8d 17 7b be
       -0.18704174 -0.12280941 -0.21043354 -0.24520703
000140 cb b3 bd be c2 7e 5e be e1 9c 86 be 13 b2 e0 3d
       -0.37051234 -0.21728042 -0.26291564 0.10971465
000150 ec 0a d8 be 7e 06 49 be 78 77 12 be d6 73 aa be
       -0.42195833 -0.19631383 -0.14303386 -0.332915
000160 a2 61 87 bf e3 36 a3 bf 56 3f 76 bf e2 e1 7a bf
       -1.057667 -1.2751125 -0.9619039 -0.9800092
000170 9b ff ab bd 40 af 58 be 74 89 d1 be fe 3d 2d be
       -0.08398362 -0.21160603 -0.4092518 -0.1691818
000180 5f e4 c9 bf 28 c4 cf bf 4d bc 1e be 6f bc 10 bc
       -1.5772818 -1.6231737 -0.15501519 -0.008833989
000190 1c c9 9d be 82 b5 67 be 8c 20 64 bd 8d 07 1c be
       -0.30817497 -0.22627833 -0.0556951 -0.15237255
0001a0 1d 8c 46 be 53 dc 71 3d 86 51 af be 9c 05 54 3b
       -0.19389386 0.05904801 -0.34241885 0.0032351976
0001b0 57 f2 c8 bc e6 34 c8 bd 48 01 89 be e0 df 2a 3d
       -0.02452962 -0.097757146 -0.2675879 0.04171741
0001c0 63 a0 aa bf e2 da 89 bf 62 5b e0 bd 85 12 63 be
       -1.3330196 -1.0769923 -0.1095493 -0.22175033
0001d0 cc 74 cf bd 53 ec 3c be 20 29 98 bf 80 1a a1 bf
       -0.10129699 -0.18449526 -1.188755 -1.2586212
0001e0 92 6d 85 bf 78 46 8a bf d7 5d db 3f ec 7d f0 3f
       -1.0424063 -1.0802755 1.7138013 1.8788428
0001f0 60 67 b6 be 67 ac 80 be 85 da 85 bd 79 a6 b8 bd
       -0.35625744 -0.25131533 -0.0653582 -0.09016127

blocks.0.num_mlp.mlps.1.b_in f4 [64]
000000 82 ab 8b be 00 00 00 00 00 00 00 00 a4 12 16 ae
       -0.27279288 0.0 0.0 -3.4122608e-11
000010 15 ba b0 be 78 bd 99 be ca 52 8a bf 00 00 00 00
       -0.3451697 -0.30027366 -1.0806515 0.0
000020 37 ad 97 bf 5e cf ae bf 00 00 00 00 52 6e 89 be
       -1.1849736 -1.3657033 0.0 -0.2684198
000030 9b bd 99 be 77 bd 99 be 8b ed 8d be 5f 38 39 bf
       -0.3002747 -0.30027363 -0.27720293 -0.7235164
000040 8b 0f 97 be 00 00 00 00 4f bd 99 be c6 77 3d bf
       -0.29504046 0.0 -0.30027243 -0.74010885
000050 f9 cd ae bf 1e bd 99 be 7a b8 f9 10 00 00 00 00
       -1.3656608 -0.30027097 9.8497414e-29 0.0
000060 00 00 00 00 00 00 00 00 00 00 00 00 c9 42 98 3e
       0.0 0.0 0.0 0.29738453
000070 7e 8b 97 bf 00 00 00 00 72 6a 01 bf 05 6e 10 be
       -1.1839445 0.0 -0.5055305 -0.14104469
000080 85 34 61 be 00 00 00 00 8c f9 c6 be 09 d4 c4 bf
       -0.21992691 0.0 -0.38862264 -1.5377208
000090 00 00 00 00 28 63 aa be 00 00 00 00 67 b9 99 be
       0.0 -0.33278775 0.0 -0.30024263
0000a0 92 bd 99 be bb fb 4b 2e ab 6a c7 be 00 00 00 00
       -0.30027443 4.6380438e-11 -0.3894857 0.0
0000b0 97 be 6e bf 46 c8 10 c0 00 00 00 00 94 fc 8c be
       -0.9325957 -2.2622237 0.0 -0.27536452
0000c0 23 05 ff 3f 00 00 00 00 a5 bd 99 be 00 00 00 00
       1.9923443 0.0 -0.300275 0.0
0000d0 75 d6 0a 11 00 00 00 00 00 00 00 00 00 00 00 00
       1.0952365e-28 0.0 0.0 0.0
0000e0 07 af 98 bf 00 00 00 00 00 00 00 00 f5 71 97 bf
       -1.1928414 0.0 0.0 -1.1831652
0000f0 97 cc 9c be 3c 08 45 bf dc b2 c2 be 00 00 00 00
       -0.3062484 -0.7696569 -0.38027084 0.0

blocks.0.num_mlp.mlps.1.W_out f4 [8, 64]
000000 9f bb 48 3e 0b 67 92 be c9 39 28 3e 26 bb 0d 3e
       0.19602822 -0.2859424 0.16428293 0.13840923
000010 4d c8 3d 3e 10 9f 11 3f e8 47 0b 40 4d 49 c1 bc
       0.1853344 0.56883335 2.1762638 -0.023594523
000020 c8 df 83 bf c7 0a 5e 3f 9a 34 20 3d 4f 5d a0 3e
       -1.0302668 0.86735195 0.039112665 0.3132119
000030 29 29 ce 3d 73 c3 1f 3f dc 22 40 3e fd b5 00 40
       0.100664444 0.62407607 0.18763298 2.0111077
000040 23 ae 39 3e 1e e3 a5 3d 7c c4 e8 3e c2 51 5d 40
       0.18132834 0.0809996 0.45462406 3.458115
000050 77 26 a5 3f bc 09 29 3f 1b f2 16 be 9d 48 32 bc
       1.2902364 0.6603048 -0.14740793 -0.01088157
000060 7e 3b b2 be 73 89 92 3d 13 79 16 3e b7 a4 7e 3f
       -0.34811014 0.071551226 0.14694624 0.99470085
000070 a4 56 93 40 e6 72 d4 bd 5a 3d 19 40 85 0b 4c 3f
       4.6043262 -0.10373478 2.3943696 0.7970508
000080 29 cf cd 3e c0 11 d4 3e 57 d8 58 be c3 88 f5 3f
       0.40197113 0.41419792 -0.21176277 1.9182361
000090 40 fc 6e bb 25 00 4f 3f 7e 49 b6 3d 90 eb 0f 3f
       -0.003646627 0.80859596 0.08900736 0.56218815
0000a0 52 5a b4 bd b2 28 60 3d 3c fa 3e be 6f 5c 6c 3c
       -0.0880629 0.05472631 -0.18650144 0.014426335
0000b0 11 a6 d6 3f 4a e0 0f 40 ff a6 71 be 15 5d 32 3e
       1.676943 2.2480645 -0.2359886 0.1741832
0000c0 4a 15 3f c0 62 1c 6d be 04 2b a3 3e f8 39 f6 3d
       -2.9856744 -0.23155358 0.31868756 0.120227754
0000d0 49 ce 99 bd 85 75 0d 3f 9d 36 a4 be 42 c1 0d bf
       -0.07510049 0.55257446 -0.32072917 -0.55373013
0000e0 3a ca 9a bf f0 d7 b3 3e 6c b2 3f 3f cd ce dc 3f
       -1.2092965 0.35125685 0.74881625 1.725061
0000f0 ec fb c5 3f 84 7d 50 40 d5 8d 03 3e 84 dc a3 3c
       1.5467505 3.2576609 0.12847073 0.020002611
000100 19 5d cf be 1a 6f 7a be 67 7a 6d be 04 97 7b 3e
       -0.40500715 -0.24456444 -0.23191224 0.24569327
000110 0b bd 2f bf 75 23 b8 be 1d e9 8c be 0b 10 d7 3e
       -0.6864783 -0.35964552 -0.275216 0.42004427
000120 5e 40 64 be 69 6f bd bc 18 07 60 3e b8 55 d0 3e
       -0.22290179 -0.023124414 0.21877706 0.40690398
000130 a5 96 48 be af 30 e6 bd 9b b8 17 bc ca 22 00 bf
       -0.19588716 -0.112397544 -0.009260322 -0.50053084
000140 18 7c 93 be ff f9 06 3e 8e 49 29 bf 3a a3 cf 3e
       -0.28805614 0.13181303 -0.6612786 0.4055422
000150 b7 9c cf 3e 55 19 b9 be 9d 87 b8 3c 22 e1 e5 be
       0.4054925 -0.3615214 0.022525603 -0.44898325
000160 48 e3 60 be ab 62 ac bd 56 2f 01 3d 5e 7d fe 3d
       -0.21961701 -0.08417257 0.031539284 0.12426256
000170 ab 45 9d bf a9 46 e9 3d 90 37 70 bf 00 f9 4e 3f
       -1.2286886 0.113904305 -0.9383478 0.80848694
000180 dc e3 63 bf ad 50 d9 3e b9 27 f9 be fd c6 06 bf
       -0.8901956 0.42444363 -0.48663118 -0.5264738
000190 77 64 7b bd 44 23 f7 bc 6f bf 5f 3e 08 a5 2f 3f
       -0.061375108 -0.030168183 0.2185037 0.6861119
0001a0 af d6 16 be 6f d3 40 3f 60 99 17 3f 82 ae d8 3d
       -0.14730333 0.7532262 0.59218407 0.1058016
0001b0 3c 02 39 bf 36 bf ec be c2 f8 40 3d 3b 02 3f 3d
       -0.72269034 -0.46239632 0.047112234 0.046632987
0001c0 ec d5 9e c0 98 36 d3 3b e4 59 36 be d8 c3 34 3c
       -4.9636135 0.006445717 -0.17807728 0.011033021
0001d0 f3 f4 10 3e 85 24 1a 3e 05 f8 97 3e e1 45 e0 3e
       0.1415594 0.15052994 0.2968141 0.43803313
0001e0 9d ac 3d 3e 43 19 16 bf b9 84 46 3e f7 68 85 bf
       0.18522878 -0.58632296 0.19386567 -1.0422658
0001f0 d4 73 99 bf bb 12 c8 bd 92 15 00 bf 4b 0b c9 bc
       -1.1988473 -0.097691976 -0.50032914 -0.024541518
000200 ac 99 f3 3d 98 b4 59 bd 2f 01 80 be 8a 40 29 3e
       0.11894545 -0.053150743 -0.25000903 0.16528526
000210 c6 b4 d9 be b9 18 30 3e ba bf 06 be 6e 0e a3 bc
       -0.42520732 0.17196931 -0.13159075 -0.019904342
000220 3a e6 1b 3e a8 d3 a8 be f5 3e 08 bf 5a 4c 87 be
       0.15224543 -0.3297398 -0.53221065 -0.2642544
000230 f6 64 73 3e 35 26 2f be 48 0b 34 3f f9 2b c9 be
       0.23768982 -0.17104419 0.70329714 -0.3929136
000240 c0 3a b1 3e a1 f1 b6 3e 20 a5 a4 bd e8 d5 46 3f
       0.34615135 0.35731223 -0.080393076 0.77670145
000250 4b 8b 0e 3f 42 f0 d1 be a1 60 07 3f 21 a1 b5 3e
       0.55681294 -0.41003615 0.5288182 0.35474494
000260 22 1b 02 bf 80 a5 79 3c 18 f0 14 bf a4 68 83 bf
       -0.5082265 0.015237212 -0.58178854 -1.0266309
000270 6d 94 cf be 13 5e 19 bd d1 47 48 bf e1 6c 20 3f
       -0.40542927 -0.03744323 -0.78234583 0.62666136
000280 90 b1 26 3e fb a7 8f 3d 2a 49 37 bf 3a 40 a0 bf
       0.16278672 0.070144616 -0.71596014 -1.25196
000290 8e ac 40 3f 31 30 bf be 25 9a 29 3e 58 48 00 3e
       0.752633 -0.37341455 0.16562708 0.12527597
0002a0 48 ea 41 be f4 7c 0f 3f 54 f3 28 3b 14 e7 78 3f
       -0.18937027 0.5605004 0.00257798 0.972276
0002b0 63 59 2f bf 00 ce ad bf 2b bf ae be 74 d8 29 bf
       -0.6849577 -1.3578491 -0.34130225 -0.66345906
0002c0 f6 2d 9a c0 3f 89 60 3e b3 67 63 bd 9c da 86 3e
       -4.8181105 0.21927355 -0.055518817 0.2633866
0002d0 05 58 a8 be 75 f1 77 be 0a 17 64 3e 1a 06 30 3f
       -0.32879654 -0.24213202 0.22274414 0.6875931
0002e0 0e 9b 0c 3e e0 1f a0 3e d6 2b c8 be 66 db 74 bf
       0.13731024 0.3127432 -0.39095944 -0.95647275
0002f0 39 38 29 bb a1 3c b8 be 45 6c 87 bd c6 aa c8 3e
       -0.0025820865 -0.35983756 -0.06612448 0.3919279
000300 cb 35 1c 3f c4 33 5e bd e7 c7 c6 bd 2a bc ce 3d
       0.6101958 -0.054248586 -0.09706097 0.10094483
000310 85 22 61 3e b3 6a f0 bd 99 44 40 3e 89 52 22 bf
       0.21985824 -0.11739101 0.18776168 -0.6340719
000320 ee 92 ea be 8b 17 92 be 90 cf 3f 3f 3a fe da 3e
       -0.45815223 -0.28533587 0.7492609 0.42772084
000330 8c 37 d8 3e 0f 48 70 3e dd 1d 91 be 83 08 5c 3e
       0.4222988 0.23464988 -0.28343096 0.21487622
000340 6a 82 17 be 7e 1e 26 be 39 a3 20 be 86 a7 13 bf
       -0.14795843 -0.1622257 -0.15687265 -0.57677495
000350 93 86 28 3d 4e 6e ca 3e 3b 54 2a bf c1 90 45 be
       0.041143965 0.3953728 -0.66534775 -0.192935
000360 fb e7 a0 3d 01 08 d1 bd 50 4f 72 3e b1 40 07 3f
       0.07856747 -0.10206605 0.23663068 0.52833086
000370 43 77 14 be 5f 3a 34 be dd af 96 3d 00 ee 97 bc
       -0.1449862 -0.17600392 0.07357762 -0.018546104
000380 d0 df dc 3d a2 0c ce bd 5f 0c e4 3d a3 96 26 bf
       0.10784876 -0.10061003 0.11135172 -0.65073603
000390 c8 d6 91 3e 10 55 b4 bd 94 1a 86 be ed 74 17 3f
       0.28484178 -0.08805287 -0.26192153 0.5916279
0003a0 07 79 12 bd 3c b4 6e 3e 16 92 8c 3d 0f 2f d3 bd
       -0.035759952 0.23310941 0.06863801 -0.1031171
0003b0 30 a3 28 3f 50 17 66 bf f1 ca 50 bd ed da a0 be
       0.65874004 -0.8987932 -0.05097479 -0.31417027
0003c0 ba 36 50 c0 e5 49 aa 3e b0 f8 f5 be 4e b6 17 3e
       -3.2533402 0.33259502 -0.48041296 0.14815637
0003d0 45 02 b4 bd 6d 83 f3 be 2b 24 d9 bd f9 9a 46 bf
       -0.087894954 -0.47561207 -0.106026016 -0.7758022
0003e0 ef 04 dc bd 35 7e 97 bd a8 18 77 3e 23 c9 b9 be
       -0.107431285 -0.07397119 0.241305 -0.36286268
0003f0 5c b2 ae bd f2 d4 01 3f 68 47 3a 3d e8 4d 1b bf
       -0.08530113 0.50715554 0.045478255 -0.6066575

blocks.0.num_mlp.mlps.1.b_out f4 [8]
000000 2c a8 5e be 9f 5a fd be 6d d7 ef be 41 c1 95 3e
       -0.2174384 -0.494832 -0.46844044 0.29249004
000010 bb 40 07 bf d2 1b 0a 40 43 1d c0 3e d1 f2 da be
       -0.52833146 2.157948 0.37522325 -0.4276338

blocks.0.num_mlp.mlps.1.W_read.W f4 [2, 5]
000000 9f c4 84 c0 31 f6 a4 c0 56 76 8d 40 28 d5 8c 40
       -4.1490016 -5.1550527 4.4206953 4.40102
000010 f7 d1 a0 c0 7f 59 85 c0 65 fa a7 c0 57 54 11 40
       -5.0256305 -4.167175 -5.2493157 2.2707727
000020 3f 4c d9 40 54 51 99 c0
       6.7905574 -4.7911777

blocks.0.num_mlp.mlps.1.W_read.E f4 [5, 1, 1]
000000 00 00 80 3f 00 00 80 3f 00 00 80 3f 00 00 80 3f
       1.0 1.0 1.0 1.0
000010 00 00 80 3f
       1.0
