output/histheads44mlps22/model.pt (torch, 45982 bytes, 44 tensors)

embed.W_E f4 [8, 8]
0	0x41200000	10.0
1	0xc1200000	-10.0
2	0xc1200000	-10.0
3	0xc1200000	-10.0
4	0xc1200000	-10.0
5	0xc1200000	-10.0
6	0xc1200000	-10.0
7	0xc1200000	-10.0
8	0xc1200000	-10.0
9	0x41200000	10.0
10	0xc1200000	-10.0
11	0xc1200000	-10.0
12	0xc1200000	-10.0
13	0xc1200000	-10.0
14	0xc1200000	-10.0
15	0xc1200000	-10.0
16	0xc1200000	-10.0
17	0xc1200000	-10.0
18	0x41200000	10.0
19	0xc1200000	-10.0
20	0xc1200000	-10.0
21	0xc1200000	-10.0
22	0xc1200000	-10.0
23	0xc1200000	-10.0
24	0xc1200000	-10.0
25	0xc1200000	-10.0
26	0xc1200000	-10.0
27	0x41200000	10.0
28	0xc1200000	-10.0
29	0xc1200000	-10.0
30	0xc1200000	-10.0
31	0xc1200000	-10.0
32	0xc1200000	-10.0
33	0xc1200000	-10.0
34	0xc1200000	-10.0
35	0xc1200000	-10.0
36	0x41200000	10.0
37	0xc1200000	-10.0
38	0xc1200000	-10.0
39	0xc1200000	-10.0
40	0xc1200000	-10.0
41	0xc1200000	-10.0
42	0xc1200000	-10.0
43	0xc1200000	-10.0
44	0xc1200000	-10.0
45	0x41200000	10.0
46	0xc1200000	-10.0
47	0xc1200000	-10.0
48	0xc1200000	-10.0
49	0xc1200000	-10.0
50	0xc1200000	-10.0
51	0xc1200000	-10.0
52	0xc1200000	-10.0
53	0xc1200000	-10.0
54	0x41200000	10.0
55	0xc1200000	-10.0
56	0xc1200000	-10.0
57	0xc1200000	-10.0
58	0xc1200000	-10.0
59	0xc1200000	-10.0
60	0xc1200000	-10.0
61	0xc1200000	-10.0
62	0xc1200000	-10.0
63	0x41200000	10.0

num_embed.W_E f4 [8, 1]
0	0x3f800000	1.0
1	0x3f800000	1.0
2	0x3f800000	1.0
3	0x3f800000	1.0
4	0x3f800000	1.0
5	0x3f800000	1.0
6	0x3f800000	1.0
7	0x3f800000	1.0

pos_embed.W f4 [8, 8]
0	0x3f800000	1.0
1	0x00000000	0.0
2	0x00000000	0.0
3	0x00000000	0.0
4	0x00000000	0.0
5	0x00000000	0.0
6	0x00000000	0.0
7	0x00000000	0.0
8	0x00000000	0.0
9	0x3f800000	1.0
10	0x00000000	0.0
11	0x00000000	0.0
12	0x00000000	0.0
13	0x00000000	0.0
14	0x00000000	0.0
15	0x00000000	0.0
16	0x00000000	0.0
17	0x00000000	0.0
18	0x3f800000	1.0
19	0x00000000	0.0
20	0x00000000	0.0
21	0x00000000	0.0
22	0x00000000	0.0
23	0x00000000	0.0
24	0x00000000	0.0
25	0x00000000	0.0
26	0x00000000	0.0
27	0x3f800000	1.0
28	0x00000000	0.0
29	0x00000000	0.0
30	0x00000000	0.0
31	0x00000000	0.0
32	0x00000000	0.0
33	0x00000000	0.0
34	0x00000000	0.0
35	0x00000000	0.0
36	0x3f800000	1.0
37	0x00000000	0.0
38	0x00000000	0.0
39	0x00000000	0.0
40	0x00000000	0.0
41	0x00000000	0.0
42	0x00000000	0.0
43	0x00000000	0.0
44	0x00000000	0.0
45	0x3f800000	1.0
46	0x00000000	0.0
47	0x00000000	0.0
48	0x00000000	0.0
49	0x00000000	0.0
50	0x00000000	0.0
51	0x00000000	0.0
52	0x00000000	0.0
53	0x00000000	0.0
54	0x3f800000	1.0
55	0x00000000	0.0
56	0x00000000	0.0
57	0x00000000	0.0
58	0x00000000	0.0
59	0x00000000	0.0
60	0x00000000	0.0
61	0x00000000	0.0
62	0x00000000	0.0
63	0x3f800000	1.0

blocks.0.cat_attn.mask f4 [8, 8]
0	0x3f800000	1.0
1	0x00000000	0.0
2	0x00000000	0.0
3	0x00000000	0.0
4	0x00000000	0.0
5	0x00000000	0.0
6	0x00000000	0.0
7	0x00000000	0.0
8	0x3f800000	1.0
9	0x3f800000	1.0
10	0x00000000	0.0
11	0x00000000	0.0
12	0x00000000	0.0
13	0x00000000	0.0
14	0x00000000	0.0
15	0x00000000	0.0
16	0x3f800000	1.0
17	0x3f800000	1.0
18	0x3f800000	1.0
19	0x00000000	0.0
20	0x00000000	0.0
21	0x00000000	0.0
22	0x00000000	0.0
23	0x00000000	0.0
24	0x3f800000	1.0
25	0x3f800000	1.0
26	0x3f800000	1.0
27	0x3f800000	1.0
28	0x00000000	0.0
29	0x00000000	0.0
30	0x00000000	0.0
31	0x00000000	0.0
32	0x3f800000	1.0
33	0x3f800000	1.0
34	0x3f800000	1.0
35	0x3f800000	1.0
36	0x3f800000	1.0
37	0x00000000	0.0
38	0x00000000	0.0
39	0x00000000	0.0
40	0x3f800000	1.0
41	0x3f800000	1.0
42	0x3f800000	1.0
43	0x3f800000	1.0
44	0x3f800000	1.0
45	0x3f800000	1.0
46	0x00000000	0.0
47	0x00000000	0.0
48	0x3f800000	1.0
49	0x3f800000	1.0
50	0x3f800000	1.0
51	0x3f800000	1.0
52	0x3f800000	1.0
53	0x3f800000	1.0
54	0x3f800000	1.0
55	0x00000000	0.0
56	0x3f800000	1.0
57	0x3f800000	1.0
58	0x3f800000	1.0
59	0x3f800000	1.0
60	0x3f800000	1.0
61	0x3f800000	1.0
62	0x3f800000	1.0
63	0x3f800000	1.0

blocks.0.cat_attn.W_K.W f4 [4, 2]
0	0x40d88f6b	6.767507
1	0xc0bc54b8	-5.8853416
2	0xc0cb5e57	-6.355266
3	0x40a6ee29	5.2165723
4	0x40e0ca6b	7.024709
5	0xc10c7d18	-8.78054
6	0x40e2e564	7.090502
7	0xc0c6ce92	-6.212716

blocks.0.cat_attn.W_K.E f4 [2, 8, 8]
0	0x3f800000	1.0
1	0x00000000	0.0
2	0x00000000	0.0
3	0x00000000	0.0
4	0x00000000	0.0
5	0x00000000	0.0
6	0x00000000	0.0
7	0x00000000	0.0
8	0x00000000	0.0
9	0x3f800000	1.0
10	0x00000000	0.0
11	0x00000000	0.0
12	0x00000000	0.0
13	0x00000000	0.0
14	0x00000000	0.0
15	0x00000000	0.0
16	0x00000000	0.0
17	0x00000000	0.0
18	0x3f800000	1.0
19	0x00000000	0.0
20	0x00000000	0.0
21	0x00000000	0.0
22	0x00000000	0.0
23	0x00000000	0.0
24	0x00000000	0.0
25	0x00000000	0.0
26	0x00000000	0.0
27	0x3f800000	1.0
28	0x00000000	0.0
29	0x00000000	0.0
30	0x00000000	0.0
31	0x00000000	0.0
32	0x00000000	0.0
33	0x00000000	0.0
34	0x00000000	0.0
35	0x00000000	0.0
36	0x3f800000	1.0
37	0x00000000	0.0
38	0x00000000	0.0
39	0x00000000	0.0
40	0x00000000	0.0
41	0x00000000	0.0
42	0x00000000	0.0
43	0x00000000	0.0
44	0x00000000	0.0
45	0x3f800000	1.0
46	0x00000000	0.0
47	0x00000000	0.0
48	0x00000000	0.0
49	0x00000000	0.0
50	0x00000000	0.0
51	0x00000000	0.0
52	0x00000000	0.0
53	0x00000000	0.0
54	0x3f800000	1.0
55	0x00000000	0.0
56	0x00000000	0.0
57	0x00000000	0.0
58	0x00000000	0.0
59	0x00000000	0.0
60	0x00000000	0.0
61	0x00000000	0.0
62	0x00000000	0.0
63	0x3f800000	1.0
64	0x3f800000	1.0
65	0x00000000	0.0
66	0x00000000	0.0
67	0x00000000	0.0
68	0x00000000	0.0
69	0x00000000	0.0
70	0x00000000	0.0
71	0x00000000	0.0
72	0x00000000	0.0
73	0x3f800000	1.0
74	0x00000000	0.0
75	0x00000000	0.0
76	0x00000000	0.0
77	0x00000000	0.0
78	0x00000000	0.0
79	0x00000000	0.0
80	0x00000000	0.0
81	0x00000000	0.0
82	0x3f800000	1.0
83	0x00000000	0.0
84	0x00000000	0.0
85	0x00000000	0.0
86	0x00000000	0.0
87	0x00000000	0.0
88	0x00000000	0.0
89	0x00000000	0.0
90	0x00000000	0.0
91	0x3f800000	1.0
92	0x00000000	0.0
93	0x00000000	0.0
94	0x00000000	0.0
95	0x00000000	0.0
96	0x00000000	0.0
97	0x00000000	0.0
98	0x00000000	0.0
99	0x00000000	0.0
100	0x3f800000	1.0
101	0x00000000	0.0
102	0x00000000	0.0
103	0x00000000	0.0
104	0x00000000	0.0
105	0x00000000	0.0
106	0x00000000	0.0
107	0x00000000	0.0
108	0x00000000	0.0
109	0x3f800000	1.0
110	0x00000000	0.0
111	0x00000000	0.0
112	0x00000000	0.0
113	0x00000000	0.0
114	0x00000000	0.0
115	0x00000000	0.0
116	0x00000000	0.0
117	0x00000000	0.0
118	0x3f800000	1.0
119	0x00000000	0.0
120	0x00000000	0.0
121	0x00000000	0.0
122	0x00000000	0.0
123	0x00000000	0.0
124	0x00000000	0.0
125	0x00000000	0.0
126	0x00000000	0.0
127	0x3f800000	1.0

blocks.0.cat_attn.W_Q.W f4 [4, 2]
0	0x40ae9956	5.456218
1	0xc0c80028	-6.250019
2	0x3f51185f	0.8167781
3	0xbf8e12a3	-1.1099437
4	0x40f04cc7	7.509372
5	0xc0eac7dd	-7.3368974
6	0x40f43226	7.6311216
7	0xc104d42f	-8.301803

blocks.0.cat_attn.W_Q.E f4 [2, 8, 8]
0	0x3f800000	1.0
1	0x00000000	0.0
2	0x00000000	0.0
3	0x00000000	0.0
4	0x00000000	0.0
5	0x00000000	0.0
6	0x00000000	0.0
7	0x00000000	0.0
8	0x00000000	0.0
9	0x3f800000	1.0
10	0x00000000	0.0
11	0x00000000	0.0
12	0x00000000	0.0
13	0x00000000	0.0
14	0x00000000	0.0
15	0x00000000	0.0
16	0x00000000	0.0
17	0x00000000	0.0
18	0x3f800000	1.0
19	0x00000000	0.0
20	0x00000000	0.0
21	0x00000000	0.0
22	0x00000000	0.0
23	0x00000000	0.0
24	0x00000000	0.0
25	0x00000000	0.0
26	0x00000000	0.0
27	0x3f800000	1.0
28	0x00000000	0.0
29	0x00000000	0.0
30	0x00000000	0.0
31	0x00000000	0.0
32	0x00000000	0.0
33	0x00000000	0.0
34	0x00000000	0.0
35	0x00000000	0.0
36	0x3f800000	1.0
37	0x00000000	0.0
38	0x00000000	0.0
39	0x00000000	0.0
40	0x00000000	0.0
41	0x00000000	0.0
42	0x00000000	0.0
43	0x00000000	0.0
44	0x00000000	0.0
45	0x3f800000	1.0
46	0x00000000	0.0
47	0x00000000	0.0
48	0x00000000	0.0
49	0x00000000	0.0
50	0x00000000	0.0
51	0x00000000	0.0
52	0x00000000	0.0
53	0x00000000	0.0
54	0x3f800000	1.0
55	0x00000000	0.0
56	0x00000000	0.0
57	0x00000000	0.0
58	0x00000000	0.0
59	0x00000000	0.0
60	0x00000000	0.0
61	0x00000000	0.0
62	0x00000000	0.0
63	0x3f800000	1.0
64	0x3f800000	1.0
65	0x00000000	0.0
66	0x00000000	0.0
67	0x00000000	0.0
68	0x00000000	0.0
69	0x00000000	0.0
70	0x00000000	0.0
71	0x00000000	0.0
72	0x00000000	0.0
73	0x3f800000	1.0
74	0x00000000	0.0
75	0x00000000	0.0
76	0x00000000	0.0
77	0x00000000	0.0
78	0x00000000	0.0
79	0x00000000	0.0
80	0x00000000	0.0
81	0x00000000	0.0
82	0x3f800000	1.0
83	0x00000000	0.0
84	0x00000000	0.0
85	0x00000000	0.0
86	0x00000000	0.0
87	0x00000000	0.0
88	0x00000000	0.0
89	0x00000000	0.0
90	0x00000000	0.0
91	0x3f800000	1.0
92	0x00000000	0.0
93	0x00000000	0.0
94	0x00000000	0.0
95	0x00000000	0.0
96	0x00000000	0.0
97	0x00000000	0.0
98	0x00000000	0.0
99	0x00000000	0.0
100	0x3f800000	1.0
101	0x00000000	0.0
102	0x00000000	0.0
103	0x00000000	0.0
104	0x00000000	0.0
105	0x00000000	0.0
106	0x00000000	0.0
107	0x00000000	0.0
108	0x00000000	0.0
109	0x3f800000	1.0
110	0x00000000	0.0
111	0x00000000	0.0
112	0x00000000	0.0
113	0x00000000	0.0
114	0x00000000	0.0
115	0x00000000	0.0
116	0x00000000	0.0
117	0x00000000	0.0
118	0x3f800000	1.0
119	0x00000000	0.0
120	0x00000000	0.0
121	0x00000000	0.0
122	0x00000000	0.0
123	0x00000000	0.0
124	0x00000000	0.0
125	0x00000000	0.0
126	0x00000000	0.0
127	0x3f800000	1.0

blocks.0.cat_attn.W_pred.W f4 [4, 8, 8]
0	0xbf34a6a5	-0.7056678
1	0x3e36dedd	0.17858453
2	0xbefeef61	-0.49792007
3	0x3f4f63ed	0.8101185
4	0xbf09a5df	-0.53768724
5	0x3d8a5d28	0.067560494
6	0x3eeece99	0.46641997
7	0xbde4039b	-0.111335
8	0xbfe5d9f8	-1.7957144
9	0xc094aca1	-4.646073
10	0x40d9edd3	6.8102813
11	0x4091113b	4.5333533
12	0x40c014bd	6.0025315
13	0xbfc8e383	-1.5694431
14	0x3fef68d4	1.8703866
15	0xc02bd122	-2.6846395
16	0xc007d652	-2.122456
17	0xc092af8d	-4.5839295
18	0x40153649	2.3314383
19	0xc08539c5	-4.163302
20	0xbfd507b3	-1.6642975
21	0x40f8c253	7.773721
22	0x40393415	2.8938038
23	0xc089d710	-4.3075027
24	0xbf4d706f	-0.80249685
25	0xc0d33647	-6.6003757
26	0x40c2cc12	6.087411
27	0xc084cbc5	-4.149874
28	0x41314daa	11.081461
29	0xbd2d8f48	-0.04237297
30	0x406bc95d	3.6841652
31	0xc057ffb4	-3.3749819
32	0xbff5e832	-1.9211485
33	0xc0584670	-3.3792992
34	0x3f7267b9	0.9468952
35	0xc0224b9b	-2.5358646
36	0xbf9d5eec	-1.2294593
37	0x41162d86	9.386114
38	0x40809403	4.018068
39	0xc05a078c	-3.4067106
40	0xbfbaa153	-1.4580482
41	0xc080ab31	-4.0208974
42	0xc0912976	-4.536311
43	0xbfcc789c	-1.5974307
44	0x412071ed	10.027814
45	0xc06bad7e	-3.6824641
46	0x40e8bcfa	7.2730684
47	0xc000bef0	-2.011654
48	0xbf47ea30	-0.78091717
49	0xc0aa8767	-5.3290286
50	0xc05db7eb	-3.4643505
51	0xc03b763e	-2.929092
52	0xbe87ce25	-0.26524463
53	0x40f03ffd	7.507811
54	0x4089ea96	4.309886
55	0xc057b5d5	-3.3704731
56	0xbf61747d	-0.8806837
57	0xc029064d	-2.6410096
58	0xc0896b05	-4.294314
59	0xc0168227	-2.3516939
60	0xbf806ae8	-1.0032625
61	0x3ed8062e	0.42192215
62	0x410ad525	8.677037
63	0xbfff3968	-1.9939394
64	0x3f855a4f	1.0418185
65	0xbe95033d	-0.29104033
66	0xbf1837e6	-0.59460294
67	0xbef84ada	-0.48494607
68	0xbf461a25	-0.77383643
69	0xbe9a5446	-0.3014242
70	0xbd46589a	-0.04842434
71	0x3f32b848	0.6981244
72	0xbfb34230	-1.4004574
73	0xc034307c	-2.8154593
74	0xc071538c	-3.7707243
75	0xc0877a3d	-4.2336717
76	0xc034434b	-2.8166072
77	0xc0137fb2	-2.304669
78	0xbe299bc9	-0.16563334
79	0x415af376	13.684439
80	0xbf0d1284	-0.5510638
81	0xc05f4962	-3.488854
82	0xc06147a0	-3.5199966
83	0xc0ac77e0	-5.389633
84	0xc096ff4e	-4.718665
85	0xbf3c8529	-0.73640686
86	0x3f071161	0.52760893
87	0x413e8dfc	11.909664
88	0xbfe02ba6	-1.751332
89	0xbfcd325d	-1.6030995
90	0xbf4cb7d8	-0.79968023
91	0xc06a080c	-3.6567411
92	0xc02f2b18	-2.7370052
93	0xbfdda0f1	-1.731474
94	0xbed78aec	-0.42098176
95	0x4133d691	11.239884
96	0xbf0e844d	-0.55670625
97	0xc07cd508	-3.9505024
98	0xc092bc3a	-4.585477
99	0xc0a05288	-5.0100746
100	0xc04113ac	-3.0168257
101	0xbecc09f2	-0.39851338
102	0xbf3b3200	-0.7312317
103	0x4157a104	13.47681
104	0xc0100fe2	-2.2509694
105	0xbfd17a4b	-1.6365446
106	0xc0b6e1b6	-5.7150526
107	0xc09239bf	-4.569549
108	0xc05c1ab5	-3.43913
109	0x3e8aa65f	0.27080056
110	0xc0195a6c	-2.396144
111	0x413bd5b0	11.73967
112	0xc0360692	-2.844151
113	0x4112be51	9.171464
114	0xbff0f92f	-1.8826045
115	0xbdf9b6c0	-0.1219306
116	0xbfe64fdd	-1.7993122
117	0xbec535e4	-0.38517678
118	0xbf038588	-0.5137563
119	0xc000ebf5	-2.0144017
120	0xc088b705	-4.2723413
121	0x3f727dde	0.9472331
122	0x410f883f	8.970763
123	0x3fa92408	1.3214121
124	0x3fa9220c	1.3213515
125	0x40773ea4	3.8631983
126	0xc062ec32	-3.5456662
127	0xc097e82f	-4.7470927
128	0x3fcd3457	1.6031598
129	0xbfe7994f	-1.8093661
130	0xbf93d5bb	-1.15496
131	0xbf31432b	-0.69243115
132	0xbf5f4eb9	-0.87229496
133	0xc00fb348	-2.2453175
134	0x3fe022d9	1.7510635
135	0xbf1d22d6	-0.6138128
136	0x3f8380cb	1.027368
137	0x40f28ffe	7.580077
138	0xc0a52f73	-5.162042
139	0x4093bf5b	4.617109
140	0x3d4db70c	0.050223395
141	0xc08e8a46	-4.454379
142	0xc0b57611	-5.6706624
143	0xbfd2b320	-1.6460915
144	0x3ff2126f	1.8911875
145	0xc0c18c74	-6.048395
146	0x40d1f98d	6.5617127
147	0xc099c709	-4.8055463
148	0xc00c2505	-2.1897595
149	0xbff00ad4	-1.8753304
150	0xc0809f5f	-4.0194545
151	0x3f1174fe	0.5681914
152	0x3fecfb79	1.8514243
153	0xc0e63867	-7.194385
154	0x410762e8	8.461647
155	0x3fd92ff2	1.6967757
156	0xc06254ee	-3.5364337
157	0xc0c0bb76	-6.0228834
158	0xc09bbb51	-4.866616
159	0xbf50f074	-0.816169
160	0x3eeabb6a	0.4584611
161	0xbeeb0913	-0.4590536
162	0x3fbdb261	1.4820062
163	0x3fe4a87d	1.7863919
164	0xc0b52d74	-5.6617985
165	0xc0041201	-2.0635989
166	0x4104001b	8.250026
167	0xc01d74bd	-2.4602501
168	0x3ed62dda	0.41831857
169	0xc0cc3f2f	-6.382713
170	0x405bd657	3.4349573
171	0x40a8bd74	5.2731266
172	0x410c66ad	8.775067
173	0xc1197e77	-9.593375
174	0xc09c3cb7	-4.8824115
175	0xc09e46a0	-4.946121
176	0x3e8b9edd	0.2726964
177	0xc0a7dfd7	-5.246074
178	0x3f34c719	0.706163
179	0x404f7a12	3.2418256
180	0x40f0bdf6	7.5231886
181	0x40c4165c	6.1277294
182	0xc1089338	-8.535942
183	0xc0cfb974	-6.4913883
184	0x3e8b2d32	0.2718292
185	0x4098e4d5	4.7779336
186	0x3edb4c31	0.42831567
187	0x402f8a56	2.7428184
188	0xbfa1a0bb	-1.2627176
189	0xbfdb973f	-1.7155532
190	0xc01cbf67	-2.4491823
191	0xbebd5ec0	-0.3698635
192	0xbea9a597	-0.33134148
193	0x3f9d8cce	1.2308595
194	0x3f78839d	0.97075826
195	0x3e88ebe3	0.26742467
196	0xbf3dfc05	-0.74212676
197	0x3eac23f6	0.33621186
198	0xbe3e5e8d	-0.18590756
199	0xbf42efea	-0.7614733
200	0xbf140c72	-0.5783149
201	0xbf85a832	-1.0441954
202	0xbfbba000	-1.4658203
203	0xc0681a85	-3.6266186
204	0x407bec1b	3.9362857
205	0x40047787	2.0697954
206	0x40fe1e47	7.941196
207	0xc0af21d8	-5.4728813
208	0xbdcfb3de	-0.10141729
209	0x40f36cad	7.607016
210	0xc0e0cd10	-7.025032
211	0x4077986e	3.8686786
212	0xc04bd232	-3.1847043
213	0xc08fd674	-4.4949284
214	0xbf108c52	-0.5646411
215	0xbfd99b48	-1.7000513
216	0xbf6d41bb	-0.9267842
217	0x4125ffaa	10.374918
218	0x40c2e467	6.090381
219	0xc07e84ef	-3.9768636
220	0xc08dda13	-4.4328704
221	0xc0202ee3	-2.5028617
222	0xc0196be5	-2.3972104
223	0xc0168230	-2.351696
224	0xbf832c18	-1.0247831
225	0x4012b360	2.2921982
226	0xc0508072	-3.2578397
227	0x40fe2073	7.941461
228	0xc05696d1	-3.352955
229	0xc0816cef	-4.0445476
230	0xbfdf6273	-1.7451919
231	0xc03cdad8	-2.9508572
232	0xbf8c9772	-1.0983717
233	0x4116aabc	9.416683
234	0x3e937169	0.28797463
235	0x4020d5a0	2.5130386
236	0x409a8b6b	4.829519
237	0xc0fa7fce	-7.828101
238	0x4020ceb2	2.5126157
239	0xc088bd60	-4.273117
240	0xbf334b8e	-0.7003716
241	0x4038c94f	2.887287
242	0x4112846f	9.157332
243	0x40946bd8	4.6381645
244	0xbeb72052	-0.35766846
245	0xbfe29772	-1.7702467
246	0xc07810f2	-3.8760343
247	0xc0365ab3	-2.8492858
248	0xbef37ebb	-0.47557625
249	0x3f38b72d	0.72154504
250	0xbee6babc	-0.45064342
251	0x40e4431c	7.133192
252	0xbf2c418d	-0.6728752
253	0xc03d009c	-2.9531622
254	0xbdbac770	-0.09120071
255	0xbfed6664	-1.8546872

blocks.0.cat_attn.W_V.W f4 [4, 2]
0	0x40a4bc24	5.1479664
1	0xc079945f	-3.8996809
2	0xc0883338	-4.2562523
3	0x40919ad6	4.550151
4	0xc06d8633	-3.7113159
5	0x4033d72d	2.8100083
6	0xc03a6a5c	-2.9127417
7	0x40a143c8	5.039524

blocks.0.cat_attn.W_V.E f4 [2, 8, 8]
0	0x3f800000	1.0
1	0x00000000	0.0
2	0x00000000	0.0
3	0x00000000	0.0
4	0x00000000	0.0
5	0x00000000	0.0
6	0x00000000	0.0
7	0x00000000	0.0
8	0x00000000	0.0
9	0x3f800000	1.0
10	0x00000000	0.0
11	0x00000000	0.0
12	0x00000000	0.0
13	0x00000000	0.0
14	0x00000000	0.0
15	0x00000000	0.0
16	0x00000000	0.0
17	0x00000000	0.0
18	0x3f800000	1.0
19	0x00000000	0.0
20	0x00000000	0.0
21	0x00000000	0.0
22	0x00000000	0.0
23	0x00000000	0.0
24	0x00000000	0.0
25	0x00000000	0.0
26	0x00000000	0.0
27	0x3f800000	1.0
28	0x00000000	0.0
29	0x00000000	0.0
30	0x00000000	0.0
31	0x00000000	0.0
32	0x00000000	0.0
33	0x00000000	0.0
34	0x00000000	0.0
35	0x00000000	0.0
36	0x3f800000	1.0
37	0x00000000	0.0
38	0x00000000	0.0
39	0x00000000	0.0
40	0x00000000	0.0
41	0x00000000	0.0
42	0x00000000	0.0
43	0x00000000	0.0
44	0x00000000	0.0
45	0x3f800000	1.0
46	0x00000000	0.0
47	0x00000000	0.0
48	0x00000000	0.0
49	0x00000000	0.0
50	0x00000000	0.0
51	0x00000000	0.0
52	0x00000000	0.0
53	0x00000000	0.0
54	0x3f800000	1.0
55	0x00000000	0.0
56	0x00000000	0.0
57	0x00000000	0.0
58	0x00000000	0.0
59	0x00000000	0.0
60	0x00000000	0.0
61	0x00000000	0.0
62	0x00000000	0.0
63	0x3f800000	1.0
64	0x3f800000	1.0
65	0x00000000	0.0
66	0x00000000	0.0
67	0x00000000	0.0
68	0x00000000	0.0
69	0x00000000	0.0
70	0x00000000	0.0
71	0x00000000	0.0
72	0x00000000	0.0
73	0x3f800000	1.0
74	0x00000000	0.0
75	0x00000000	0.0
76	0x00000000	0.0
77	0x00000000	0.0
78	0x00000000	0.0
79	0x00000000	0.0
80	0x00000000	0.0
81	0x00000000	0.0
82	0x3f800000	1.0
83	0x00000000	0.0
84	0x00000000	0.0
85	0x00000000	0.0
86	0x00000000	0.0
87	0x00000000	0.0
88	0x00000000	0.0
89	0x00000000	0.0
90	0x00000000	0.0
91	0x3f800000	1.0
92	0x00000000	0.0
93	0x00000000	0.0
94	0x00000000	0.0
95	0x00000000	0.0
96	0x00000000	0.0
97	0x00000000	0.0
98	0x00000000	0.0
99	0x00000000	0.0
100	0x3f800000	1.0
101	0x00000000	0.0
102	0x00000000	0.0
103	0x00000000	0.0
104	0x00000000	0.0
105	0x00000000	0.0
106	0x00000000	0.0
107	0x00000000	0.0
108	0x00000000	0.0
109	0x3f800000	1.0
110	0x00000000	0.0
111	0x00000000	0.0
112	0x00000000	0.0
113	0x00000000	0.0
114	0x00000000	0.0
115	0x00000000	0.0
116	0x00000000	0.0
117	0x00000000	0.0
118	0x3f800000	1.0
119	0x00000000	0.0
120	0x00000000	0.0
121	0x00000000	0.0
122	0x00000000	0.0
123	0x00000000	0.0
124	0x00000000	0.0
125	0x00000000	0.0
126	0x00000000	0.0
127	0x3f800000	1.0

blocks.0.cat_attn.rel_pos_bias.bias f4 [4, 16]
0	0xc0000000	-2.0
1	0x00000000	0.0
2	0xbe2aaaab	-0.16666667
3	0xbeaaaaab	-0.33333334
4	0xbf000000	-0.5
5	0xbf2aaaaa	-0.6666666
6	0xbf555555	-0.8333333
7	0xbf800000	-1.0
8	0xbf800000	-1.0
9	0xbf5b6db7	-0.85714287
10	0xbf36db6e	-0.71428573
11	0xbf124924	-0.57142854
12	0xbedb6db8	-0.42857146
13	0xbe924925	-0.2857143
14	0xbe124925	-0.14285715
15	0x00000000	0.0
16	0xc0000000	-2.0
17	0x00000000	0.0
18	0xbe2aaaab	-0.16666667
19	0xbeaaaaab	-0.33333334
20	0xbf000000	-0.5
21	0xbf2aaaaa	-0.6666666
22	0xbf555555	-0.8333333
23	0xbf800000	-1.0
24	0xbf800000	-1.0
25	0xbf5b6db7	-0.85714287
26	0xbf36db6e	-0.71428573
27	0xbf124924	-0.57142854
28	0xbedb6db8	-0.42857146
29	0xbe924925	-0.2857143
30	0xbe124925	-0.14285715
31	0x00000000	0.0
32	0xc0000000	-2.0
33	0x00000000	0.0
34	0xbe2aaaab	-0.16666667
35	0xbeaaaaab	-0.33333334
36	0xbf000000	-0.5
37	0xbf2aaaaa	-0.6666666
38	0xbf555555	-0.8333333
39	0xbf800000	-1.0
40	0xbf800000	-1.0
41	0xbf5b6db7	-0.85714287
42	0xbf36db6e	-0.71428573
43	0xbf124924	-0.57142854
44	0xbedb6db8	-0.42857146
45	0xbe924925	-0.2857143
46	0xbe124925	-0.14285715
47	0x00000000	0.0
48	0xc0000000	-2.0
49	0x00000000	0.0
50	0xbe2aaaab	-0.16666667
51	0xbeaaaaab	-0.33333334
52	0xbf000000	-0.5
53	0xbf2aaaaa	-0.6666666
54	0xbf555555	-0.8333333
55	0xbf800000	-1.0
56	0xbf800000	-1.0
57	0xbf5b6db7	-0.85714287
58	0xbf36db6e	-0.71428573
59	0xbf124924	-0.57142854
60	0xbedb6db8	-0.42857146
61	0xbe924925	-0.2857143
62	0xbe124925	-0.14285715
63	0x00000000	0.0

blocks.0.num_attn.mask f4 [8, 8]
0	0x3f800000	1.0
1	0x00000000	0.0
2	0x00000000	0.0
3	0x00000000	0.0
4	0x00000000	0.0
5	0x00000000	0.0
6	0x00000000	0.0
7	0x00000000	0.0
8	0x3f800000	1.0
9	0x3f800000	1.0
10	0x00000000	0.0
11	0x00000000	0.0
12	0x00000000	0.0
13	0x00000000	0.0
14	0x00000000	0.0
15	0x00000000	0.0
16	0x3f800000	1.0
17	0x3f800000	1.0
18	0x3f800000	1.0
19	0x00000000	0.0
20	0x00000000	0.0
21	0x00000000	0.0
22	0x00000000	0.0
23	0x00000000	0.0
24	0x3f800000	1.0
25	0x3f800000	1.0
26	0x3f800000	1.0
27	0x3f800000	1.0
28	0x00000000	0.0
29	0x00000000	0.0
30	0x00000000	0.0
31	0x00000000	0.0
32	0x3f800000	1.0
33	0x3f800000	1.0
34	0x3f800000	1.0
35	0x3f800000	1.0
36	0x3f800000	1.0
37	0x00000000	0.0
38	0x00000000	0.0
39	0x00000000	0.0
40	0x3f800000	1.0
41	0x3f800000	1.0
42	0x3f800000	1.0
43	0x3f800000	1.0
44	0x3f800000	1.0
45	0x3f800000	1.0
46	0x00000000	0.0
47	0x00000000	0.0
48	0x3f800000	1.0
49	0x3f800000	1.0
50	0x3f800000	1.0
51	0x3f800000	1.0
52	0x3f800000	1.0
53	0x3f800000	1.0
54	0x3f800000	1.0
55	0x00000000	0.0
56	0x3f800000	1.0
57	0x3f800000	1.0
58	0x3f800000	1.0
59	0x3f800000	1.0
60	0x3f800000	1.0
61	0x3f800000	1.0
62	0x3f800000	1.0
63	0x3f800000	1.0

blocks.0.num_attn.W_K.W f4 [4, 2]
0	0x40b38918	5.610485
1	0xc0ccccba	-6.399991
2	0x406ce086	3.7012038
3	0xc0a7d0fb	-5.2442603
4	0x40cce4bf	6.402923
5	0xc0d05974	-6.5109196
6	0x40a48153	5.1407866
7	0xc099efb1	-4.810509

blocks.0.num_attn.W_K.E f4 [2, 8, 8]
0	0x3f800000	1.0
1	0x00000000	0.0
2	0x00000000	0.0
3	0x00000000	0.0
4	0x00000000	0.0
5	0x00000000	0.0
6	0x00000000	0.0
7	0x00000000	0.0
8	0x00000000	0.0
9	0x3f800000	1.0
10	0x00000000	0.0
11	0x00000000	0.0
12	0x00000000	0.0
13	0x00000000	0.0
14	0x00000000	0.0
15	0x00000000	0.0
16	0x00000000	0.0
17	0x00000000	0.0
18	0x3f800000	1.0
19	0x00000000	0.0
20	0x00000000	0.0
21	0x00000000	0.0
22	0x00000000	0.0
23	0x00000000	0.0
24	0x00000000	0.0
25	0x00000000	0.0
26	0x00000000	0.0
27	0x3f800000	1.0
28	0x00000000	0.0
29	0x00000000	0.0
30	0x00000000	0.0
31	0x00000000	0.0
32	0x00000000	0.0
33	0x00000000	0.0
34	0x00000000	0.0
35	0x00000000	0.0
36	0x3f800000	1.0
37	0x00000000	0.0
38	0x00000000	0.0
39	0x00000000	0.0
40	0x00000000	0.0
41	0x00000000	0.0
42	0x00000000	0.0
43	0x00000000	0.0
44	0x00000000	0.0
45	0x3f800000	1.0
46	0x00000000	0.0
47	0x00000000	0.0
48	0x00000000	0.0
49	0x00000000	0.0
50	0x00000000	0.0
51	0x00000000	0.0
52	0x00000000	0.0
53	0x00000000	0.0
54	0x3f800000	1.0
55	0x00000000	0.0
56	0x00000000	0.0
57	0x00000000	0.0
58	0x00000000	0.0
59	0x00000000	0.0
60	0x00000000	0.0
61	0x00000000	0.0
62	0x00000000	0.0
63	0x3f800000	1.0
64	0x3f800000	1.0
65	0x00000000	0.0
66	0x00000000	0.0
67	0x00000000	0.0
68	0x00000000	0.0
69	0x00000000	0.0
70	0x00000000	0.0
71	0x00000000	0.0
72	0x00000000	0.0
73	0x3f800000	1.0
74	0x00000000	0.0
75	0x00000000	0.0
76	0x00000000	0.0
77	0x00000000	0.0
78	0x00000000	0.0
79	0x00000000	0.0
80	0x00000000	0.0
81	0x00000000	0.0
82	0x3f800000	1.0
83	0x00000000	0.0
84	0x00000000	0.0
85	0x00000000	0.0
86	0x00000000	0.0
87	0x00000000	0.0
88	0x00000000	0.0
89	0x00000000	0.0
90	0x00000000	0.0
91	0x3f800000	1.0
92	0x00000000	0.0
93	0x00000000	0.0
94	0x00000000	0.0
95	0x00000000	0.0
96	0x00000000	0.0
97	0x00000000	0.0
98	0x00000000	0.0
99	0x00000000	0.0
100	0x3f800000	1.0
101	0x00000000	0.0
102	0x00000000	0.0
103	0x00000000	0.0
104	0x00000000	0.0
105	0x00000000	0.0
106	0x00000000	0.0
107	0x00000000	0.0
108	0x00000000	0.0
109	0x3f800000	1.0
110	0x00000000	0.0
111	0x00000000	0.0
112	0x00000000	0.0
113	0x00000000	0.0
114	0x00000000	0.0
115	0x00000000	0.0
116	0x00000000	0.0
117	0x00000000	0.0
118	0x3f800000	1.0
119	0x00000000	0.0
120	0x00000000	0.0
121	0x00000000	0.0
122	0x00000000	0.0
123	0x00000000	0.0
124	0x00000000	0.0
125	0x00000000	0.0
126	0x00000000	0.0
127	0x3f800000	1.0

blocks.0.num_attn.W_Q.W f4 [4, 2]
0	0x40b705e1	5.7194676
1	0xc0a7097f	-5.219909
2	0x40a70c10	5.2202225
3	0xc0b94d89	-5.7907147
4	0x40d3ceef	6.6190104
5	0xc0d5ee3f	-6.685333
6	0x40a48098	5.1406975
7	0xc094f64d	-4.655066

blocks.0.num_attn.W_Q.E f4 [2, 8, 8]
0	0x3f800000	1.0
1	0x00000000	0.0
2	0x00000000	0.0
3	0x00000000	0.0
4	0x00000000	0.0
5	0x00000000	0.0
6	0x00000000	0.0
7	0x00000000	0.0
8	0x00000000	0.0
9	0x3f800000	1.0
10	0x00000000	0.0
11	0x00000000	0.0
12	0x00000000	0.0
13	0x00000000	0.0
14	0x00000000	0.0
15	0x00000000	0.0
16	0x00000000	0.0
17	0x00000000	0.0
18	0x3f800000	1.0
19	0x00000000	0.0
20	0x00000000	0.0
21	0x00000000	0.0
22	0x00000000	0.0
23	0x00000000	0.0
24	0x00000000	0.0
25	0x00000000	0.0
26	0x00000000	0.0
27	0x3f800000	1.0
28	0x00000000	0.0
29	0x00000000	0.0
30	0x00000000	0.0
31	0x00000000	0.0
32	0x00000000	0.0
33	0x00000000	0.0
34	0x00000000	0.0
35	0x00000000	0.0
36	0x3f800000	1.0
37	0x00000000	0.0
38	0x00000000	0.0
39	0x00000000	0.0
40	0x00000000	0.0
41	0x00000000	0.0
42	0x00000000	0.0
43	0x00000000	0.0
44	0x00000000	0.0
45	0x3f800000	1.0
46	0x00000000	0.0
47	0x00000000	0.0
48	0x00000000	0.0
49	0x00000000	0.0
50	0x00000000	0.0
51	0x00000000	0.0
52	0x00000000	0.0
53	0x00000000	0.0
54	0x3f800000	1.0
55	0x00000000	0.0
56	0x00000000	0.0
57	0x00000000	0.0
58	0x00000000	0.0
59	0x00000000	0.0
60	0x00000000	0.0
61	0x00000000	0.0
62	0x00000000	0.0
63	0x3f800000	1.0
64	0x3f800000	1.0
65	0x00000000	0.0
66	0x00000000	0.0
67	0x00000000	0.0
68	0x00000000	0.0
69	0x00000000	0.0
70	0x00000000	0.0
71	0x00000000	0.0
72	0x00000000	0.0
73	0x3f800000	1.0
74	0x00000000	0.0
75	0x00000000	0.0
76	0x00000000	0.0
77	0x00000000	0.0
78	0x00000000	0.0
79	0x00000000	0.0
80	0x00000000	0.0
81	0x00000000	0.0
82	0x3f800000	1.0
83	0x00000000	0.0
84	0x00000000	0.0
85	0x00000000	0.0
86	0x00000000	0.0
87	0x00000000	0.0
88	0x00000000	0.0
89	0x00000000	0.0
90	0x00000000	0.0
91	0x3f800000	1.0
92	0x00000000	0.0
93	0x00000000	0.0
94	0x00000000	0.0
95	0x00000000	0.0
96	0x00000000	0.0
97	0x00000000	0.0
98	0x00000000	0.0
99	0x00000000	0.0
100	0x3f800000	1.0
101	0x00000000	0.0
102	0x00000000	0.0
103	0x00000000	0.0
104	0x00000000	0.0
105	0x00000000	0.0
106	0x00000000	0.0
107	0x00000000	0.0
108	0x00000000	0.0
109	0x3f800000	1.0
110	0x00000000	0.0
111	0x00000000	0.0
112	0x00000000	0.0
113	0x00000000	0.0
114	0x00000000	0.0
115	0x00000000	0.0
116	0x00000000	0.0
117	0x00000000	0.0
118	0x3f800000	1.0
119	0x00000000	0.0
120	0x00000000	0.0
121	0x00000000	0.0
122	0x00000000	0.0
123	0x00000000	0.0
124	0x00000000	0.0
125	0x00000000	0.0
126	0x00000000	0.0
127	0x3f800000	1.0

blocks.0.num_attn.W_pred.W f4 [4, 8, 8]
0	0x3fe84abc	1.8147807
1	0xbe1323cd	-0.14369126
2	0x3d8cc2f0	0.06873119
3	0x3f85d4f2	1.0455611
4	0xbf22705d	-0.634527
5	0xbecacd7d	-0.396099
6	0xc074ba00	-3.8238525
7	0xbfd41036	-1.6567447
8	0xc0355f3a	-2.8339372
9	0x40ca110d	6.3145814
10	0xc0c9f8d1	-6.311623
11	0xc0c6cbfa	-6.2123995
12	0xc09bfcbb	-4.874601
13	0xc0b62a15	-5.692637
14	0xc0919751	-4.5497212
15	0xc0aae05c	-5.3398876
16	0xc0530049	-3.2968924
17	0xc09838d8	-4.756939
18	0x40e0ef24	7.029192
19	0xc0960cee	-4.6890783
20	0xc0bc571e	-5.8856344
21	0xc0ae5efa	-5.449094
22	0xc09e48fc	-4.946409
23	0xc0924b4d	-4.571692
24	0xc095b809	-4.678715
25	0xc0c733f0	-6.22509
26	0xc0a6fb27	-5.2181582
27	0x40ffe8ac	7.9971523
28	0xc0ab4d57	-5.353191
29	0xc0a2a7ca	-5.082982
30	0xc0a99243	-5.299104
31	0xc09a1ac1	-4.815766
32	0xc07d3dd1	-3.956898
33	0xc0b20979	-5.5636563
34	0xc0ad1c01	-5.4096684
35	0xc0a6a0b8	-5.207119
36	0x41058ad0	8.34639
37	0xc0c077e0	-6.014633
38	0xc0a88593	-5.2663054
39	0xc09e67a2	-4.9501505
40	0xc065e0f0	-3.591854
41	0xc0a29e07	-5.0817904
42	0xc0c832b4	-6.2561893
43	0xc0d18101	-6.5469975
44	0xc0a6c002	-5.2109385
45	0x40dfb67d	6.9910264
46	0xc0a94891	-5.290108
47	0xc0a22896	-5.0674543
48	0xc052ddef	-3.2947958
49	0xc0bb27f5	-5.8486276
50	0xc0af1cfc	-5.472288
51	0xc0a7de76	-5.245906
52	0xc0adcd95	-5.4313455
53	0xc0c7ac9b	-6.23982
54	0x40dc3057	6.880901
55	0xc09d1430	-4.9087143
56	0x3fe799c2	1.8093798
57	0x3f70102a	0.93774664
58	0x3db7bf4a	0.08972032
59	0x3ae66878	0.0017578742
60	0xbfcc9192	-1.5981925
61	0xbf8ab7cd	-1.0837342
62	0xbfa421c8	-1.2822809
63	0xbfd224fb	-1.6417536
64	0x3f2d3a7e	0.67667377
65	0x3f6edd66	0.9330658
66	0x3e3f072d	0.18655081
67	0xbfdcde2f	-1.7255305
68	0x3f326a36	0.69693315
69	0xbf5b4fe7	-0.85668796
70	0x40412b97	3.0182855
71	0x3fbb29d3	1.4622139
72	0xc01bdbd4	-2.4352922
73	0xc08e6754	-4.4501133
74	0x40800020	4.0000153
75	0x410049b7	8.017997
76	0x3e70d6df	0.23519467
77	0x3fd62be5	1.6732146
78	0x3f88a0e8	1.0674105
79	0xc01c5259	-2.442526
80	0xc001ccfd	-2.0281365
81	0x4077dd8c	3.8728971
82	0xc095fc1e	-4.687026
83	0x3f999125	1.199742
84	0x410facaa	8.979654
85	0x3fc38e99	1.5277892
86	0x3fa512a9	1.289632
87	0xc04f78ff	-3.24176
88	0xbfcf7d23	-1.6210064
89	0x406ac373	3.6681793
90	0x3f912bca	1.1341488
91	0xc0721445	-3.7824872
92	0x40126522	2.2874227
93	0x4001d4da	2.0286164
94	0x411ac1e0	9.672333
95	0xc03909d0	-2.891224
96	0xbf472c6e	-0.7780217
97	0x4017fd9c	2.374854
98	0x410a3485	8.637822
99	0x3f6eaf32	0.93236077
100	0xc0859974	-4.174982
101	0x405b986e	3.4311786
102	0x4007411e	2.1133494
103	0xc00d3f77	-2.2069986
104	0xbfcf94c7	-1.6217278
105	0x40676772	3.6156888
106	0x41088297	8.531882
107	0x3e9938d4	0.2992617
108	0x40485fe0	3.1308517
109	0xc0889f6d	-4.269461
110	0x3ff90f81	1.9457856
111	0xc0533a38	-3.3004284
112	0xbfb46b1e	-1.409519
113	0x3f817733	1.0114502
114	0x406d150d	3.7044098
115	0x3fca5823	1.5808147
116	0x410190f7	8.097892
117	0x3f322c09	0.6959844
118	0xc04860fd	-3.1309197
119	0xc0100001	-2.2500002
120	0xbe904038	-0.28173995
121	0xbf347c37	-0.70502037
122	0x3f86e65f	1.0539054
123	0xbf916969	-1.1360294
124	0xbeebf82c	-0.46087778
125	0x3c490ab7	0.012270621
126	0x402cb30a	2.6984277
127	0x3dbdd15e	0.09268449
128	0x3f8fcb55	1.1233927
129	0xbfdfee6f	-1.7494639
130	0xbfc377b3	-1.5270904
131	0x3f8fb304	1.1226506
132	0xbf3ce8f5	-0.73792964
133	0x3eb3fe04	0.35154736
134	0xc005bc9c	-2.0896368
135	0xbe238161	-0.15967323
136	0xc09fc4fe	-4.992797
137	0x40d780e7	6.734485
138	0xc0b89753	-5.768472
139	0xc0c8a531	-6.270165
140	0xc0b5715f	-5.6700892
141	0xc0bf55f8	-5.979244
142	0xc0847e5c	-4.1404247
143	0xc095e830	-4.684593
144	0xc08acff6	-4.337886
145	0xc0bcc01f	-5.8984523
146	0x40c96c84	6.2944965
147	0xc0de1038	-6.93948
148	0xc0ce9901	-6.456177
149	0xc09b1c0e	-4.8471746
150	0xc084d5ad	-4.1510835
151	0xc08c8e98	-4.3924065
152	0xc0718cb2	-3.7742124
153	0xc0b44a77	-5.63409
154	0xc0b3853b	-5.6100135
155	0x40d4438f	6.633247
156	0xc0ad1c80	-5.409729
157	0xc0979d4d	-4.7379518
158	0xc0a42a7c	-5.130186
159	0xc0723cc7	-3.7849596
160	0xc0c4c397	-6.1488757
161	0xc0c807b9	-6.2509427
162	0xc0c8cb34	-6.274805
163	0xc0bf7f57	-5.9842944
164	0x41053c17	8.32717
165	0xc0b58b3f	-5.673248
166	0xc0a03c43	-5.007356
167	0xc07026ac	-3.7523603
168	0xc082b461	-4.084519
169	0xc0bfc694	-5.9929905
170	0xc0d4c52d	-6.6490693
171	0xc0d9880a	-6.7978563
172	0xc0c701b2	-6.218957
173	0x40fb31a9	7.849812
174	0xc0ad68e8	-5.419056
175	0xc0981422	-4.7524576
176	0xc05d8b9d	-3.4616463
177	0xc0c1a5b9	-6.05148
178	0xc0c5311a	-6.162244
179	0xc0ab4a66	-5.352832
180	0xc0aa4557	-5.3209643
181	0xc0ba5a7e	-5.8235464
182	0x40ddbd61	6.9293675
183	0xc07503de	-3.828361
184	0x40079edf	2.1190717
185	0x3edc0642	0.42973524
186	0xbeb41176	-0.35169572
187	0x3f168e28	0.58810663
188	0xbfd40099	-1.6562682
189	0xbfbdf184	-1.483933
190	0xc009b9b9	-2.1519606
191	0xbf97614f	-1.1826571
192	0x3dd5e118	0.10443324
193	0xbeb243b6	-0.34817284
194	0xbfb4ddb3	-1.4130157
195	0xbfd412d5	-1.6568247
196	0xbf6c1b03	-0.92228717
197	0xbcba00b7	-0.022705419
198	0x3fba60d0	1.4560795
199	0x3fc830a8	1.5639849
200	0xbf595b0a	-0.8490454
201	0xc05402be	-3.3126674
202	0x3fc07c98	1.5038023
203	0x3e5e52c8	0.21711266
204	0x407a70e4	3.9131403
205	0x4107b85b	8.482509
206	0x3f7a9860	0.97888756
207	0xc019f29d	-2.405433
208	0xbf28f984	-0.6600573
209	0x3fd6789e	1.675556
210	0xc0376fb5	-2.866193
211	0x4066e874	3.6079378
212	0xbf95b798	-1.1696653
213	0x403f13ba	2.985579
214	0x40f6fb40	7.71817
215	0xbf9fad07	-1.2474679
216	0xbf5ff50f	-0.87483305
217	0x403c0a76	2.9381385
218	0x3fe524e6	1.7901886
219	0xc0808ebb	-4.017423
220	0x3ea4605f	0.32104775
221	0x4104c6e3	8.298556
222	0x3e25f266	0.16205749
223	0xbfaeceae	-1.3656824
224	0xbfc8f52b	-1.5699819
225	0x40f59f95	7.67573
226	0xbe8a02ed	-0.26955357
227	0xbfa8582f	-1.3151911
228	0xc073c385	-3.8088086
229	0x3fd3035b	1.6485399
230	0x40458a02	3.0865483
231	0xbff7e5fc	-1.9367061
232	0xbfb1268a	-1.3839886
233	0x401d95c3	2.4622657
234	0xbeb8a1f8	-0.36061072
235	0x410dd7d8	8.865196
236	0xbf434bc2	-0.7628747
237	0xc054c6c4	-3.3246317
238	0x400b0cba	2.1726518
239	0xbfa886c0	-1.3166122
240	0xbfb1eee6	-1.3901031
241	0x40ee5620	7.4480133
242	0xbe1d35da	-0.15352574
243	0xbd9694e5	-0.07352618
244	0xbf82bd3e	-1.0214002
245	0x405b36fe	3.4252315
246	0xc0828494	-4.078684
247	0x3f00f70f	0.5037698
248	0x3e1ac997	0.15115963
249	0x3f023da4	0.50875306
250	0xbfaebc1f	-1.365116
251	0xbfaf8cc6	-1.3714836
252	0x3e59db99	0.21275176
253	0xbd1613aa	-0.036639847
254	0x3d7faf57	0.062423076
255	0x3f92fcd1	1.1483403

blocks.0.num_attn.W_V.W f4 [4, 1]
0	0xbfa4a411	-1.2862569
1	0x3f903832	1.126715
2	0xbfdb227c	-1.7119899
3	0xbedbe008	-0.4294436

blocks.0.cat_mlp.mlps.0.W_in f4 [64, 16]
0	0xbeba3686	-0.36369723
1	0xbebdc0c4	-0.3706113
2	0xbed43e79	-0.41453913
3	0xbec9a4b0	-0.3938346
4	0xbe9f8b01	-0.3116074
5	0xbe2669dd	-0.16251321
6	0xbe0b6788	-0.13613713
7	0xbeac20e9	-0.33618858
8	0xbecbcef9	-0.39806345
9	0xbea47ba5	-0.32125583
10	0xbf1252e6	-0.5715774
11	0xbe57268c	-0.21010798
12	0xbe872bc2	-0.26400572
13	0xbe8b006e	-0.27148765
14	0xbe0ee82a	-0.13955751
15	0xbef1aa72	-0.47200352
16	0x3e9fc226	0.3120281
17	0x3e0f9904	0.14023215
18	0x3e896504	0.2683488
19	0x3e3f8b08	0.1870538
20	0x3e8d0702	0.2754441
21	0x3eccff67	0.40038607
22	0x3e51126a	0.2041718
23	0x3e1512d3	0.14557962
24	0x3eb1b69c	0.34709632
25	0x3eb47f00	0.35253143
26	0x3d8a83ba	0.06763406
27	0x3ebb6b4c	0.366053
28	0x3e2c8391	0.16847064
29	0x3efaa515	0.48954073
30	0x3e4426f0	0.19155478
31	0x3ef0ddb6	0.47044152
32	0xbee4070f	-0.44536635
33	0x3d6d06ea	0.057867922
34	0xbec44d31	-0.38340142
35	0xbe1c7f25	-0.15282877
36	0xbeb93e76	-0.36180466
37	0xbe439d5b	-0.19102995
38	0x3c294359	0.010330998
39	0xbeb0f607	-0.34562704
40	0xbeae6371	-0.34060243
41	0xbea6cf84	-0.32580197
42	0xbe81512e	-0.25257248
43	0xbed59705	-0.4171678
44	0xbe439342	-0.19099143
45	0xbeb95a63	-0.36201772
46	0xbe6687e9	-0.22512783
47	0xbe85a434	-0.2610184
48	0xbe393fda	-0.18090764
49	0xbe55a3ae	-0.2086322
50	0xbef6dc2b	-0.4821485
51	0xbf0e53c2	-0.55596554
52	0xbea50eb3	-0.32237777
53	0xbe6394c2	-0.22224715
54	0xbf02e782	-0.511345
55	0xbe4aca7f	-0.19803809
56	0xbeb2a453	-0.34890994
57	0xbe0fefe1	-0.1405635
58	0xbe719304	-0.23591238
59	0xbe836b12	-0.25667626
60	0xbedc25f4	-0.42997706
61	0xbed715e9	-0.42008904
62	0xbe3de979	-0.18546094
63	0xbe74e037	-0.23913656
64	0x3eeca2e1	0.46218017
65	0x3ed2a656	0.4114253
66	0x3c77882d	0.01510815
67	0x3e86c698	0.2632339
68	0x3e809530	0.2511382
69	0x3dd97f98	0.1062004
70	0x3dfb5b2b	0.12273248
71	0x3e8baf58	0.27282214
72	0x3e4c4566	0.19948348
73	0x3ed1b377	0.40957233
74	0x3d01e17b	0.031709176
75	0x3e99f11a	0.30066758
76	0x3eeb4bf9	0.459564
77	0xbd5973f8	-0.053089112
78	0x3e0afbba	0.13572589
79	0x3ea2ad83	0.31773004
80	0x3e8b5865	0.27215877
81	0x3ec164b1	0.37772134
82	0x3ec4e5b1	0.3845649
83	0x3d3193e2	0.043353923
84	0x3d98a81c	0.07453939
85	0xbc8232e6	-0.01589341
86	0x3e0feda7	0.14055501
87	0x3e9003fe	0.28128046
88	0x3e950709	0.2910693
89	0x3e870172	0.2636829
90	0x3e5fa5b2	0.21840551
91	0x3ede5e08	0.43431115
92	0x3e1338dc	0.14377159
93	0xbd498346	-0.049197458
94	0x388e2a8c	6.7790126e-05
95	0x3e2a2d7f	0.16618918
96	0xbe5a44a5	-0.21315248
97	0xbe982f94	-0.297238
98	0xbed0c394	-0.40774214
99	0xbe6f1f30	-0.23351741
100	0xbebbfdbe	-0.36717027
101	0xbeef7d27	-0.4677517
102	0xbde248d8	-0.1104905
103	0xbe800fb6	-0.25011986
104	0xbf0ef2a1	-0.5583897
105	0xbe7136b6	-0.23556027
106	0xbe67ad8b	-0.22624795
107	0xbeb43d60	-0.35203075
108	0xbe7b0d0d	-0.24516697
109	0xbeb37b53	-0.35055026
110	0xbd0e0dca	-0.03468112
111	0xbea78e3e	-0.3272571
112	0xbea3bf41	-0.31981853
113	0xbe78a7db	-0.24282782
114	0xbe5d3972	-0.21603945
115	0xbe98b684	-0.29826748
116	0xbeb72d5d	-0.35776797
117	0xbec7822e	-0.38966507
118	0xbdd764eb	-0.105172954
119	0xbed832aa	-0.42226154
120	0xbee299a8	-0.44257855
121	0xbeaad20c	-0.33363378
122	0xbeed1618	-0.4630592
123	0xbe7186be	-0.23586556
124	0xbe91acd4	-0.2845217
125	0xbe36d350	-0.17854047
126	0xbe260651	-0.16213347
127	0xbe9c5196	-0.30530995
128	0xbf07001b	-0.52734536
129	0xbe5b2f7a	-0.2140483
130	0xbe1ba173	-0.15198307
131	0xbe0b9f4b	-0.13634984
132	0xbeb03635	-0.34416357
133	0xbe1ca5fb	-0.15297692
134	0xbec37256	-0.3817317
135	0xbe709f60	-0.23498297
136	0xbed72ece	-0.42027897
137	0xbf11a2d4	-0.5688908
138	0xbe82412c	-0.25440347
139	0xbeb4877e	-0.35259622
140	0xbec947a2	-0.39312464
141	0xbdc3d127	-0.09561377
142	0xbe7181a0	-0.23584604
143	0xbea8f0ab	-0.32996115
144	0xbe75dcd7	-0.24010025
145	0xbe88be01	-0.2670746
146	0xbdf27919	-0.11839504
147	0xbe83a247	-0.25709745
148	0xbdcbb837	-0.099472456
149	0xbe67dbf2	-0.22642496
150	0xbf042a70	-0.51627254
151	0xbec246ed	-0.37944737
152	0xbe9b623a	-0.30348378
153	0xbe41460d	-0.18874379
154	0xbe9b2aec	-0.30306184
155	0xbe97b59d	-0.29630747
156	0xbe6bc889	-0.23025717
157	0xbeff3ae3	-0.49849615
158	0xbebf9b03	-0.37422952
159	0xbea1e375	-0.31618848
160	0xbe5a2663	-0.21303706
161	0xbebd5b72	-0.3698383
162	0xbeb23672	-0.34807163
163	0xbe9fd3b8	-0.31216216
164	0xbe72053b	-0.23634808
165	0xbe53cd40	-0.20683765
166	0xbedba85d	-0.42901888
167	0xbee9e7ce	-0.45684665
168	0xbea14ede	-0.31505483
169	0xbec11db5	-0.37717977
170	0xbe467030	-0.19378734
171	0xbe92782f	-0.28607318
172	0xbe274899	-0.16336288
173	0xbe288916	-0.16458544
174	0xbe6a9b03	-0.22910695
175	0xbe5077c4	-0.20358187
176	0xbe16c53c	-0.14723676
177	0xbd498e63	-0.049208056
178	0x3ce4c2cd	0.02792492
179	0xbdaa237e	-0.08307551
180	0xbe269785	-0.16268738
181	0x3deba799	0.11506576
182	0xbee266f9	-0.44219187
183	0xbdffb507	-0.124857
184	0xbc179ad9	-0.009253227
185	0xbcc76398	-0.024339482
186	0x3eaaf98d	0.33393517
187	0xbc3bb8db	-0.011457647
188	0xbe32107f	-0.17389105
189	0x3e490966	0.19632491
190	0xbe867c06	-0.26266497
191	0xbe3735ad	-0.1789157
192	0xbec8f962	-0.39252764
193	0xbf098d0e	-0.5373086
194	0xbee0c1af	-0.4389777
195	0xbec03210	-0.37538195
196	0xbf17ce14	-0.59298825
197	0xbebdf70a	-0.37102538
198	0xbe4daecb	-0.2008621
199	0xbec90777	-0.39263508
200	0xbe802b89	-0.25033215
201	0xbe20c3b6	-0.15699658
202	0xbe977e59	-0.29588583
203	0xbde7e29d	-0.1132252
204	0xbf10935d	-0.5647486
205	0xbe8ad188	-0.27112985
206	0xbef82486	-0.48465365
207	0xbe69e143	-0.22839837
208	0x3d70379e	0.05864679
209	0x3f3abd79	0.7294536
210	0x3edd9d5f	0.43284127
211	0x3f80616b	1.002973
212	0x3f667ee7	0.9003739
213	0x3f3c41f7	0.73538154
214	0x3fa6060a	1.2970593
215	0x3fbee2af	1.4912928
216	0x3eeba199	0.46021727
217	0x3f0fdc7f	0.56195825
218	0x3ef57cbf	0.47946736
219	0x3f811614	1.0084863
220	0x3f579cc4	0.8422358
221	0x3f4aff44	0.79295754
222	0x3fa04627	1.2521409
223	0x3fa20819	1.2658721
224	0x3dbb4cb5	0.0914549
225	0x3e59d205	0.21271522
226	0x3e76bd2c	0.24095601
227	0x3ef1ac02	0.47201544
228	0x3e499e55	0.19689305
229	0x3e8c5f98	0.27416682
230	0xbe713a0a	-0.23557296
231	0x3dfad6a4	0.12247971
232	0x3e96d7b7	0.29461452
233	0x3ec1d2b3	0.37856063
234	0x3d35a4cf	0.044346627
235	0x3e8a7a3b	0.2704638
236	0x3d31acce	0.04337769
237	0x3e2acdf6	0.1668013
238	0xbde7d7c0	-0.11320448
239	0x3e511382	0.20417598
240	0x3db68675	0.089123644
241	0xbecd9d34	-0.40159
242	0xbee075aa	-0.4383977
243	0xbec80506	-0.39066333
244	0xbe4e9145	-0.20172603
245	0xbe04ce7a	-0.1296939
246	0xbe81d107	-0.25354788
247	0xbed9bf47	-0.42528746
248	0xbe999b21	-0.30001166
249	0xbea224df	-0.31668755
250	0xbe932002	-0.28735358
251	0xbeb16502	-0.34647375
252	0xbec745c6	-0.3892042
253	0xbea16ea1	-0.31529716
254	0xbe14f523	-0.14546637
255	0xbe8d03b2	-0.27541882

blocks.0.cat_mlp.mlps.0.b_in f4 [64]
0	0xbe99b900	-0.30023956
1	0x3e5e56d9	0.21712817
2	0xbe92db11	-0.2868276
3	0xbe99bd42	-0.30027205
4	0x3e81b8ad	0.2533621
5	0x3e4907ae	0.19631836
6	0xbe9a611d	-0.30152217
7	0xbe9d7128	-0.30750394
8	0xbe9a5b55	-0.30147806
9	0xbe9a73d9	-0.3016651
10	0xbe9a142f	-0.30093524
11	0xbcdf0c1c	-0.027227454
12	0xbe99a3ac	-0.30007684
13	0x3f7f4f29	0.99730164
14	0x3e332149	0.17493166
15	0xbe99bd42	-0.30027205
16	0xbe9a421c	-0.30128562
17	0xbe9ab527	-0.30216333
18	0xbe9b4b09	-0.30330685
19	0xbe9ac224	-0.30226243
20	0x3f017e62	0.5058347
21	0xbe99bc33	-0.30026397
22	0x3e590b30	0.21195674
23	0x3e76c177	0.24097238
24	0x3e3a4e07	0.18193828
25	0xbe9a8ab9	-0.30183962
26	0xbcd0d28f	-0.025491027
27	0x3ea7db30	0.32784414
28	0xbe995e4f	-0.29954764
29	0x3e93a0ec	0.2883371
30	0xbe990963	-0.29889974
31	0xbe99bc44	-0.30026448
32	0xbd4f0b67	-0.050547983
33	0xbe9a76b4	-0.30168688
34	0x3e637188	0.22211277
35	0xbe99531e	-0.29946226
36	0x3e196e2b	0.14983432
37	0x3a935665	0.0011240958
38	0x3e821a35	0.2541062
39	0x3ea3911c	0.31946647
40	0xbe9ade71	-0.30247834
41	0xbd7677ab	-0.060172718
42	0xbe9926bb	-0.29912362
43	0xbe9946da	-0.29936868
44	0xbdd3dd34	-0.103449255
45	0xbe99bd1c	-0.30027092
46	0xbc0ea5c3	-0.008706513
47	0xbdf91af4	-0.12163344
48	0xbe98ca67	-0.2984192
49	0x3f175b09	0.59123284
50	0xbe9c1e66	-0.30491942
51	0xbe99bcc1	-0.3002682
52	0xbe99bcda	-0.30026895
53	0x3df3fa2b	0.1191295
54	0x3ee9b42b	0.4564527
55	0xbe9a14ee	-0.30094093
56	0xbe99bc94	-0.30026686
57	0xbe983d79	-0.297344
58	0xbe99bd57	-0.30027267
59	0x3e7ec5c5	0.2488013
60	0x3edc14e8	0.429847
61	0x3d23d677	0.03999945
62	0xbedcd229	-0.4312909
63	0xbe7e610d	-0.2484171

blocks.0.cat_mlp.mlps.0.W_out f4 [8, 64]
0	0x3b801748	0.0039090253
1	0x3f2ef938	0.6834903
2	0x3e8af8ad	0.2714285
3	0xbdd473a7	-0.103736214
4	0x3f3fcad9	0.74918896
5	0x3f1fed4c	0.6247146
6	0xbe143f05	-0.14477165
7	0x3f10cc46	0.56561697
8	0x3e6422c1	0.22278883
9	0x3f05e0ed	0.52296335
10	0xbe77ff53	-0.24218492
11	0x3e9f50fe	0.3111648
12	0x3eb57d53	0.35447177
13	0x3f903500	1.1266174
14	0x3e5ee7e9	0.21768154
15	0xbec18730	-0.37798452
16	0x3ec7c4c9	0.39017323
17	0xbe8f80bf	-0.28027913
18	0x3e176645	0.14785106
19	0xbee2d139	-0.4430025
20	0x3fa3f3b8	1.2808752
21	0x3e08740e	0.13325521
22	0x3f8cb92e	1.0994012
23	0x3f254422	0.6455709
24	0x3f3ade99	0.7299591
25	0x3ea1dd02	0.31613928
26	0x3e999bd5	0.30001703
27	0x3fa036e5	1.2516752
28	0x3dbe1e3d	0.09283111
29	0x3f7ba84e	0.9830369
30	0x3ef93692	0.48674446
31	0x3f540131	0.8281432
32	0x3f12137c	0.5706098
33	0x3e6ef131	0.23334195
34	0x3f58ec3f	0.8473548
35	0x3dcca5e4	0.099925786
36	0x3f015027	0.5051293
37	0x3ef1d3d0	0.47231913
38	0x3f64fb6f	0.8944616
39	0x3fa2f91c	1.2732272
40	0x3ebcfd3c	0.36911952
41	0xbe81d418	-0.25357127
42	0x3db1eceb	0.08687767
43	0x3e9a6fd1	0.30163434
44	0x3e495a70	0.19663405
45	0x3f01e30f	0.5073709
46	0x3e891da5	0.2678043
47	0x3ee87431	0.45401147
48	0x3dc44a8d	0.09584532
49	0x3fada52b	1.356603
50	0x3e95cef8	0.29259467
51	0x3f0d45a9	0.5518442
52	0xbd9ae823	-0.07563808
53	0x3f06bba2	0.52630055
54	0x3f860d4b	1.0472807
55	0x3d90764b	0.070538126
56	0x3f3ee065	0.7456115
57	0x3f557863	0.8338682
58	0x3e8b557b	0.27213654
59	0x3f4d2f21	0.8015004
60	0x3f60900d	0.87719804
61	0x3ee8756f	0.45402095
62	0x3df516bd	0.119672276
63	0x3d1f989a	0.03896389
64	0xbd4c5eca	-0.049895085
65	0xbd827ab9	-0.06371064
66	0xbf362aee	-0.71159256
67	0xbf46200a	-0.7739264
68	0xbeb9c9a9	-0.36286667
69	0xbe7e84aa	-0.24855295
70	0x3ed5caed	0.41756383
71	0xbe813f50	-0.25243616
72	0xbef48918	-0.47760844
73	0xbc71bee4	-0.0147549845
74	0x3e228ad6	0.15873274
75	0x3c203e87	0.009780533
76	0x3e585e0f	0.2112963
77	0xbf45d3a3	-0.77276057
78	0xbe1b3dfc	-0.15160364
79	0xbe1761df	-0.14783429
80	0xbf26db8e	-0.65178764
81	0xbeafb5fe	-0.34318537
82	0x3de338eb	0.110948406
83	0xbe990d7a	-0.29893094
84	0x3f4922c4	0.78568673
85	0x3ee0d14e	0.43909687
86	0xbee8d3a7	-0.45473978
87	0xbe9dff0b	-0.30858645
88	0xbe15ac4c	-0.14616507
89	0xbe147bd9	-0.14500369
90	0xbe2b9b61	-0.16758491
91	0xbf038bba	-0.5138508
92	0x3e9a7d2c	0.30173624
93	0xbd20b1e5	-0.039232153
94	0xbe8b33cf	-0.27187964
95	0xbe7b9184	-0.24567229
96	0x3e8c9a6a	0.2746156
97	0xbe4c388c	-0.19943446
98	0xbeb476b6	-0.3524682
99	0xbeef5299	-0.46742705
100	0xbe0884f1	-0.13331963
101	0xbdc1c761	-0.09461857
102	0xbe001aa8	-0.12510169
103	0x3e271420	0.16316271
104	0xbf0c7224	-0.54861665
105	0x3e59dc77	0.21275507
106	0xbe7e5f7b	-0.2484111
107	0xbdb02fc2	-0.08602859
108	0x3d84fd8b	0.06493672
109	0xbe25afb3	-0.16180305
110	0x3ea30ae8	0.31844258
111	0xbf4dc3af	-0.80376714
112	0xbedd3141	-0.4320164
113	0x3ddf4e8d	0.10903654
114	0xbe65bee7	-0.22436105
115	0xbee4d912	-0.44696862
116	0xbf36f42b	-0.7146632
117	0x3ca948c3	0.020664578
118	0xbe0fdea8	-0.1404978
119	0x3f0ebffd	0.557617
120	0xbf0985b2	-0.5371963
121	0x3e2769f6	0.16349015
122	0xbd8418f6	-0.064500734
123	0x3f0a49ec	0.54019046
124	0x3f642b38	0.89128447
125	0xbf195d23	-0.5990774
126	0xbe647234	-0.2230919
127	0xbf3bb5ff	-0.7332458
128	0xbe7e9d42	-0.24864677
129	0x3e8f03fc	0.27932727
130	0xbf305731	-0.68883044
131	0x3eb7cc62	0.3589812
132	0x3f6ea21c	0.9321611
133	0x3e3bfe70	0.18358779
134	0xbf3f497b	-0.747215
135	0xbdf660b2	-0.12030162
136	0x3d4121d6	0.04715141
137	0x3f1e868a	0.6192404
138	0x3f318081	0.69336706
139	0x3f017c65	0.50580436
140	0x3ecfae01	0.40562442
141	0xbf384fc0	-0.7199669
142	0x3e375c77	0.17906366
143	0xbef01e11	-0.4689794
144	0xbebe7775	-0.37200513
145	0xbea8327b	-0.32851014
146	0x3f1dc8b6	0.61634386
147	0xbf169752	-0.58824646
148	0x3ec806d9	0.39067724
149	0xbea7543c	-0.32681453
150	0x3e7d06d7	0.2470964
151	0xbd16f72a	-0.036856808
152	0xbe5d94c3	-0.2163878
153	0xbea0713b	-0.31336388
154	0x3f0f8f39	0.56077915
155	0xbe07062a	-0.13185945
156	0x3e5b2c62	0.2140365
157	0xbf07d074	-0.5305245
158	0x3e53b218	0.20673406
159	0x3d4882e7	0.048952963
160	0x3ed3b10b	0.4134601
161	0xbeaeaa76	-0.34114426
162	0x3e134421	0.14381458
163	0x3f428282	0.7598039
164	0xbe258fb3	-0.16168098
165	0xbf0106cf	-0.50401014
166	0xbe9616bc	-0.2931422
167	0xbdbd8422	-0.09253718
168	0x3e173a23	0.14768271
169	0xbe7c822a	-0.24659029
170	0x3dfafe94	0.12255588
171	0x3f2ce063	0.67529887
172	0x3f2f028a	0.6836325
173	0xbefce503	-0.49393472
174	0x3c3abd34	0.011397649
175	0x3f5eb04f	0.86987776
176	0xbe9d9eb3	-0.3078514
177	0xbeb4630c	-0.35231817
178	0xbd591994	-0.05300291
179	0x3f64ed86	0.8942493
180	0xbe5d749b	-0.21626513
181	0x3f52553b	0.821613
182	0xbd90ea54	-0.070759445
183	0x3ebb50a6	0.36584967
184	0xbe89c93f	-0.2691135
185	0x3edfcc67	0.43710634
186	0xbdefba25	-0.11705426
187	0x3f1195b0	0.5686903
188	0xbcb7a693	-0.022418296
189	0xbf88a8e2	-1.0676539
190	0xbf0b8e46	-0.5451397
191	0xbf0fddd8	-0.5619788
192	0xbc93dbdb	-0.018049171
193	0xbecbd37c	-0.39809787
194	0xbeefa8e0	-0.4680853
195	0xbede5117	-0.43421242
196	0xbb931eed	-0.0044897706
197	0xbe9e8686	-0.30962008
198	0x3da0ab1f	0.07845139
199	0xbe57dd03	-0.21080403
200	0xbea32bd4	-0.31869376
201	0xbc5fe52f	-0.0136654815
202	0xbf2384d3	-0.6387455
203	0x3e73088b	0.23733728
204	0xbec984a0	-0.39358997
205	0xbf37bf5b	-0.7177636
206	0xbf2e7901	-0.6815339
207	0xbf4cf90f	-0.80067533
208	0xbec367d9	-0.38165167
209	0xbe773f5f	-0.24145268
210	0xbf38346d	-0.71954995
211	0xbf419c95	-0.7562955
212	0xbe3ff519	-0.18745841
213	0xbf1288d3	-0.5724003
214	0x3f3a8f06	0.72874486
215	0xbf69d717	-0.91343826
216	0x3f570e6d	0.84006387
217	0x3e95acae	0.29233307
218	0xbdcbc922	-0.099504724
219	0xbf7380f8	-0.95118666
220	0xbde963c1	-0.1139598
221	0xbf739dd8	-0.95162725
222	0xbf469d04	-0.77583337
223	0x3ec7caff	0.3902206
224	0x3e5119c5	0.20419987
225	0x3e4cdac5	0.20005329
226	0xbdf18765	-0.117934026
227	0xbd70c0eb	-0.05877773
228	0xbf208ab3	-0.6271164
229	0x3e383406	0.17988595
230	0xbeca48f9	-0.395088
231	0xbde73b36	-0.112905905
232	0xbed88faf	-0.42297122
233	0xbd57895b	-0.052621227
234	0x3e3d1e6c	0.18468636
235	0xbe9140a0	-0.28369617
236	0xbee3a0db	-0.4445866
237	0xbe39afe7	-0.18133508
238	0xbedc38dd	-0.43012133
239	0x3ccedb2a	0.02525099
240	0xbec38212	-0.38185173
241	0xbeee896b	-0.46589217
242	0xbeef4af4	-0.46736872
243	0xbe950c5f	-0.29111
244	0xbeedccbb	-0.4644526
245	0xbef20f9f	-0.47277543
246	0xbe8d55c4	-0.27604496
247	0xbf1ef893	-0.62098044
248	0xbdbe570f	-0.09293949
249	0xbe09fa5e	-0.13474414
250	0xbf3b2a8c	-0.73111796
251	0xbf72f994	-0.94912076
252	0xbf918817	-1.1369656
253	0xbe9ab44c	-0.3021568
254	0xbdde8971	-0.108660586
255	0xbdbcf870	-0.09227073

blocks.0.cat_mlp.mlps.0.b_out f4 [8]
0	0x3f03d6fb	0.5149991
1	0xbe9d460f	-0.30717513
2	0x3e3b193f	0.1827135
3	0xbec00246	-0.37501734
4	0xbe91f1e6	-0.28504866
5	0x3e6c6e5f	0.23088978
6	0xbea90405	-0.3301088
7	0x3e382ee7	0.17986642

blocks.0.cat_mlp.mlps.0.W_read.W f4 [2, 6]
0	0x3f839ddb	1.0282549
1	0xbf8403ef	-1.03137
2	0x3fd12bec	1.6341529
3	0x3e5f8a19	0.21830024
4	0x3f2d7806	0.67761266
5	0xbf41b6dd	-0.7566965
6	0xbf200007	-0.6250004
7	0xbeb36003	-0.3503419
8	0x4022f13f	2.5459745
9	0x3f1f1825	0.62146217
10	0x3f8ffba0	1.1248665
11	0x3f23e5e8	0.64022684
